checkpoint_critic_1.pth (torch_old, 567853 bytes, 9 tensors)

fc1.weight f4 [400, 48]
000000 f7 00 27 3d 08 d7 48 3e 5f 72 c3 bd b6 d9 04 bd
       0.040772405 0.19613278 -0.09543299 -0.032434188
000010 58 98 97 3e fe 95 47 be 83 de a7 be bd 64 a4 bd
       0.29608417 -0.19490811 -0.3278695 -0.08027027
000020 e1 3b 48 be 9f cf 0c bd 81 80 85 bd ae 3f 92 3e
       -0.19554092 -0.03437769 -0.06518651 0.2856421
000030 b8 d9 ed 3d 50 ed 37 be 73 0c 90 bd 98 61 2c bc
       0.11613792 -0.17961621 -0.070336245 -0.010521315
000040 81 93 b3 be ab 32 1a 3e 42 f8 61 bd 84 67 cc bc
       -0.35073474 0.15058391 -0.055168398 -0.024951704
000050 cb fc 37 be 6f b5 63 3e a2 1c ae 3d c0 88 fd bc
       -0.17967527 0.2223718 0.08501555 -0.030948997
000060 dd 42 6f 3d 83 27 f3 3c ac e2 f1 be cd 29 a7 3b
       0.058413375 0.029681927 -0.4724325 0.0051014186
000070 dc a7 65 be c0 4b 2f be 1b ab 4c 3c b2 28 8e be
       -0.22427315 -0.1711874 0.012491967 -0.27765423
000080 1b c1 7f 3e 19 c8 2c bd 6f 63 39 be 65 3c 56 be
       0.24976008 -0.042183015 -0.18104337 -0.20921476
000090 28 87 cc 3b 02 ea 29 3d 8b 1b b5 bd c6 a2 d3 3d
       0.006241698 0.041482933 -0.08843144 0.10333781
0000a0 d8 9f a4 3e 08 9a 68 3d 94 aa 88 3e 75 64 b6 3e
       0.321532 0.05678752 0.2669264 0.35623518
0000b0 d0 e5 12 3d bb 79 63 3d 49 2d 70 3e 53 b8 8d 3e
       0.035863698 0.055536013 0.23454775 0.2767969
0000c0 a1 a3 ae 3e 52 a3 ca 3d be 06 f3 bd 04 8e 08 3d
       0.34109214 0.09894432 -0.1186652 0.03333856
0000d0 36 2c 33 3d d6 ea cf 3c 9c 33 df bd c7 9f 15 be
       0.043743335 0.025380533 -0.108985156 -0.14611731
0000e0 b3 86 56 bd d6 88 15 bd 40 ff 8d be 81 84 e5 bc
       -0.052374553 -0.03650745 -0.27733803 -0.028017284
0000f0 4f 19 29 bb db 80 91 bd 65 24 29 be 6b d6 35 3d
       -0.0025802439 -0.07104655 -0.1651779 0.044393938
000100 fe b5 05 bf 38 e7 56 bd 0e 51 d3 be 89 79 8e bc
       -0.52230823 -0.0524666 -0.41272777 -0.017391937
000110 9f f1 56 bd 5f 1c 6e 3c 16 7d 8b be 7c 7e 91 be
       -0.05247652 0.014533131 -0.2724387 -0.28416812
000120 09 bc f3 be 3e a7 94 be 96 7c d1 be ef d5 bd 3d
       -0.47604397 -0.29033846 -0.40915364 0.0926932
000130 cf dd f6 bc 18 f2 99 bd c4 49 95 bb 9e 9f 0b 3d
       -0.030135063 -0.07516879 -0.0045559127 0.03408777
000140 ba c9 fa bd e2 5c 04 3e 96 d3 0e be 2f ae bb bd
       -0.122455075 0.12926057 -0.13947901 -0.09164082
000150 96 e1 f7 3d 6d 0c 07 3e 16 da 0b be cf 71 e1 3e
       0.12103574 0.13188334 -0.13657412 0.44032142
000160 ba 1b d4 bd 24 9c 08 3e e1 bd 08 bd af fa fc bc
       -0.10356851 0.13340813 -0.033384208 -0.030881254
000170 cc 66 eb 3d f5 f3 84 bc f5 b8 eb 3d 70 2f ef 3c
       0.11494216 -0.016229609 0.11509887 0.029197425
000180 60 e5 6d be 91 3c 02 3c 0a 6c f4 3d 6d 32 07 3e
       -0.23232031 0.0079490105 0.11934669 0.1320283
000190 3f bd 8f 3d 5d ec a0 3e af c4 06 3e e5 e0 29 3e
       0.07018518 0.3143033 0.13160966 0.16589697
0001a0 e5 6c 7b bd fa 16 ba 3c df 61 91 3e fc c0 d6 bc
       -0.061383147 0.022716034 0.28394982 -0.026215069
0001b0 e6 e6 c9 3d 14 27 88 3d 60 9a 37 bd e1 b5 5a bd
       0.098584935 0.066480786 -0.044824958 -0.05339611
0001c0 86 b1 4b bd fc 93 c0 be b7 a3 ce 3c ff 30 37 3c
       -0.049729846 -0.37612903 0.02522455 0.011181115
0001d0 64 bf df 3c c3 c9 1f be a2 69 aa 3e a5 d7 23 be
       0.027312942 -0.1560431 0.33283716 -0.1600023
0001e0 81 c5 44 be f1 31 66 3d ff 55 cd 3d f8 eb a0 bb
       -0.19215967 0.05619997 0.10026168 -0.004910942
0001f0 a8 1b cd bd 94 4d cd 3e 33 51 4b 3c 79 99 ce bd
       -0.10015041 0.4009825 0.012409496 -0.10087866
000200 4f 6a a5 bd 60 2b c2 3d 85 d1 d0 3d ce 90 1e be
       -0.080769174 0.094809294 0.10196213 -0.15484926
000210 4a 7a 17 bd 51 ff 1a 3e c1 b4 02 3e 24 59 70 3e
       -0.03698186 0.15136458 0.12764265 0.23471504
000220 c7 60 6a be 07 8c a7 3d b5 b9 26 3e b2 10 b2 3e
       -0.2288848 0.08181005 0.16281779 0.34778363
000230 99 55 7f 3b 89 6d 33 be b9 f0 10 3d 77 0c 98 3e
       0.0038960932 -0.17522253 0.03538582 0.2969701
000240 a2 d5 6c 3d cc a8 74 be 39 73 a3 3d 51 5b aa bd
       0.057820924 -0.23892516 0.07980961 -0.083181985
000250 18 2a 1e 3e d7 63 00 be 78 82 d6 3b 7c b0 90 bc
       0.15445745 -0.12538086 0.006546315 -0.01766228
000260 94 9e a7 3d 64 fb 43 3d 93 de 80 3d bd 26 de bd
       0.08184543 0.047847167 0.06292453 -0.108472325
000270 fb bf 6a 3d 77 bc 24 be 1a 26 12 bd ce ef 31 be
       0.057311993 -0.16087519 -0.035680868 -0.17376634
000280 15 07 c3 bd c2 a4 57 3e 54 0c ee 3c 22 7c 88 bd
       -0.09522835 0.21058944 0.029058613 -0.066643015
000290 8f 41 16 bd 9a 1e 31 3e e8 2c 1f bd 6d 77 18 3d
       -0.036683615 0.1729683 -0.038861185 0.03722327
0002a0 24 9e 43 be 36 fb 7c 3e 74 88 51 3d 84 96 87 3e
       -0.19103295 0.24705204 0.051155522 0.26482022
0002b0 32 e6 4b bd a5 42 06 be 7f 32 00 3c 4d 80 54 3e
       -0.04978008 -0.1311136 0.007824539 0.20752068
0002c0 66 70 fd bd 94 f8 a1 3e d0 38 c9 bd 54 54 aa bd
       -0.12374954 0.31634963 -0.09825289 -0.083168656
0002d0 ba 58 e6 bb 3f 9f fb bc 2d ca 80 bd 6b c4 be 3d
       -0.00702962 -0.030715583 -0.06288562 0.093148075
0002e0 0f f9 e1 3b 7e ea 9a 3e 09 e5 20 be 6d c9 e6 be
       0.006896145 0.30257028 -0.1571237 -0.4507555
0002f0 21 ed 33 be d6 4e 89 3e a3 7f 68 3d e3 b9 17 bf
       -0.17570926 0.2681796 0.05676235 -0.59268016
000300 95 5d a1 be aa eb 91 be ab 6f c2 3c 61 62 79 3d
       -0.3151671 -0.2850011 0.023734888 0.060884837
000310 94 49 77 3e a2 64 16 be cf c8 00 bd 12 7e 24 3e
       0.24149162 -0.14686826 -0.031441506 0.16063717
000320 bf 53 25 be 6a 57 59 3d 1e d2 6a 3d 94 e2 0f be
       -0.16145228 0.05306188 0.05732929 -0.14051276
000330 00 85 03 3d bf 4a 45 be f1 c2 e4 3d f3 ec 12 be
       0.03210926 -0.19266795 0.111699946 -0.14348201
000340 ca 3e 84 3d cd 33 43 3e d8 08 ab 3e 80 f5 33 3d
       0.064572886 0.19062729 0.33405185 0.0439353
000350 f3 dd 23 be 71 1f 43 3e e5 13 75 3e 97 c0 49 3e
       -0.16002636 0.19054963 0.2393337 0.19702373
000360 8d 4e 8a 3d b5 f9 56 be 44 ba 90 3d fe 46 1f be
       0.067532636 -0.20993693 0.07066777 -0.15554425
000370 6a ac bc bd 9f 27 8e bd 97 43 54 3c db b9 8d be
       -0.09212573 -0.06941151 0.012955568 -0.2768086
000380 f9 48 9f 3d 9a 2a 9d bd c5 74 c8 bd 9e 0b 0c bf
       0.0777759 -0.07674141 -0.09787897 -0.54705226
000390 00 16 6a 3c ce bd ab bc 76 8a 89 bd 56 ac b3 be
       0.014287472 -0.02096453 -0.067158625 -0.3509242
0003a0 2d a8 23 3e 69 ef d6 bd 8c a7 79 be f8 6c d1 3c
       0.15982123 -0.104948826 -0.2438032 0.025564656
0003b0 27 70 83 bc a6 f8 49 3e 23 4d 03 be a5 f1 07 bd
       -0.01604469 0.19723758 -0.12822394 -0.033189435
0003c0 73 ec c1 be b8 60 5e be bb 9f 3b 3c 25 e0 a6 be
       -0.3787571 -0.21716583 0.011451657 -0.32592884
0003d0 c0 62 5a 3c 04 49 c5 3d f1 57 85 3c 0d cc 73 be
       0.013329208 0.09633067 0.016277285 -0.23808308
0003e0 49 54 41 bc c8 a5 74 3d 09 16 42 3f 27 8b af be
       -0.01179988 0.059728414 0.7581487 -0.34285852
0003f0 1f eb d1 3c ff 91 60 3d 23 3b 20 3e a1 3c f9 bd
       0.02562481 0.054826733 0.15647559 -0.12169767

fc1.bias f4 [400]
000000 ff c4 28 be 2c 84 8a be e2 ed 08 be b8 5e 38 be
       -0.16481398 -0.27053964 -0.13371995 -0.18004882
000010 e0 1d fd bd e0 28 33 be 39 11 2b be 06 54 6f be
       -0.12359214 -0.17496061 -0.16705789 -0.23371896
000020 8b 6d f0 bd 68 cc 35 be c5 04 84 be 16 e1 13 be
       -0.11739644 -0.17753756 -0.2578489 -0.14441332
000030 fa 38 8c be 8f 08 3e be 6a a5 0a be 91 8f 0f be
       -0.2738722 -0.18557952 -0.13539663 -0.1401961
000040 9d 07 54 be dd c6 a0 be 0a 3c 32 bd 2b 7b f7 bd
       -0.20706029 -0.3140172 -0.04351429 -0.12084039
000050 72 8b 3e be f9 ba 71 be 42 98 04 be 82 2a 98 be
       -0.18607882 -0.2360648 -0.12948707 -0.2971993
000060 4e 21 30 be a2 10 57 be ec 36 36 be 3b 96 12 be
       -0.17200205 -0.21002439 -0.17794389 -0.14315121
000070 d8 b6 07 be 76 31 76 be 1d cf b3 bd 19 71 95 be
       -0.13253343 -0.24042305 -0.08779738 -0.2918785
000080 73 5d 4e be 02 47 fa bd bc d5 3f be 41 a2 5d be
       -0.20152836 -0.12220575 -0.18733877 -0.21643926
000090 d2 52 a2 be c2 ef 4b be e1 7f 7c be 43 c4 8a be
       -0.31703812 -0.19915679 -0.24658157 -0.2710286
0000a0 0a 70 7f be f8 0a 6b be 6f ff 2f be 39 a9 77 be
       -0.24945083 -0.22953403 -0.17187284 -0.24185647
0000b0 0b b6 89 be 2e f4 81 be ba 4f 80 be 40 58 29 be
       -0.268967 -0.25381607 -0.25060827 -0.16537571
0000c0 2b 16 8b be 00 22 fb bd 22 93 58 be 9b e2 6e be
       -0.2716535 -0.12262344 -0.21149877 -0.2332863
0000d0 38 7a 5e be 74 cb 35 be 3d 20 05 be 49 fa 83 be
       -0.2172631 -0.17753392 -0.13000579 -0.2577689
0000e0 03 bb 5f be 47 51 35 be 98 1d 3a be 84 35 80 be
       -0.21848683 -0.17706786 -0.18175352 -0.2504083
0000f0 14 c6 15 be 41 d1 99 bd 79 ad 8b be 7f 6d bc bd
       -0.14626342 -0.07510615 -0.27280787 -0.09200572
000100 29 94 8c be 48 5d 20 be d9 a5 5f be 20 91 77 be
       -0.27456787 -0.15660584 -0.2184061 -0.24176455
000110 36 88 57 be 90 d2 06 be ab a5 6c be 1b 11 29 be
       -0.21048054 -0.1316626 -0.23110072 -0.16510431
000120 2b e4 82 be 47 68 2d be 5b 2a 8b be 5b dc 4f be
       -0.25564703 -0.1693431 -0.27180752 -0.20298903
000130 c9 08 00 3d 83 95 86 be ab 62 0d be 6c 49 4f be
       0.03125838 -0.26285943 -0.1380717 -0.20242852
000140 a1 3d 7c be b4 ec 56 be 43 f1 0a be 45 0b 6a be
       -0.24632885 -0.20988733 -0.13568597 -0.22855861
000150 98 4a 8b bd 2a 9b 9e be 56 d2 2c be cc a3 50 be
       -0.06801337 -0.30977756 -0.16877112 -0.20374984
000160 14 4f b5 bd b8 1d 98 be 07 21 4a be 82 c9 69 be
       -0.088529736 -0.29710174 -0.19739161 -0.22830775
000170 f4 01 5b be d3 72 5e be 96 f3 66 be 04 bf 46 be
       -0.21387464 -0.2172349 -0.22553858 -0.19408804
000180 3e 1e 66 be 39 62 3f be fb cc aa bd fb a0 d5 bd
       -0.22472474 -0.18689813 -0.08339878 -0.10431095
000190 05 09 95 be e0 60 ac bd ef 02 45 be 71 b7 2c be
       -0.29108444 -0.08416915 -0.192394 -0.16866852
0001a0 24 a7 1a be 59 b6 1a be c4 61 f9 bd 12 b7 83 be
       -0.15102822 -0.15108623 -0.121768504 -0.2572561
0001b0 27 73 99 be 7a c1 ae bc 72 40 65 be b2 28 58 be
       -0.29970667 -0.021332491 -0.22387865 -0.21109274
0001c0 68 c8 82 be 8f f6 84 be 0d 8f 23 be e6 9a 95 be
       -0.25543523 -0.2596936 -0.15972538 -0.2921974
0001d0 7b 2e 91 be 84 51 f5 bd da 36 57 be b6 31 35 be
       -0.28355774 -0.119784385 -0.21017018 -0.17694744
0001e0 0d f9 61 be 5e 67 aa be d2 62 34 be 85 7e 8a be
       -0.22067662 -0.33281988 -0.17615822 -0.27049652
0001f0 a4 75 d4 bd fb 87 25 be 7e 75 09 be 4a 33 8b be
       -0.10374001 -0.16165154 -0.13423726 -0.27187568
000200 98 04 dc bd 51 cf 0f be 57 e1 4c be 05 52 1b be
       -0.10743064 -0.14043929 -0.20007835 -0.15168007
000210 76 18 a4 bd 19 f4 fd bc 7c 44 85 be aa 86 89 be
       -0.08012478 -0.031000184 -0.26028812 -0.26860553
000220 29 28 91 be eb 52 2b be 8d 86 d5 bd 0b 16 82 be
       -0.28350952 -0.1673085 -0.10426054 -0.25407442
000230 3d e4 96 be d2 45 3d be 7c 45 0f be b0 ba 89 be
       -0.29471007 -0.18483666 -0.1399135 -0.26900244
000240 48 39 c3 bd 4b 0e 8a be 9d 4f 44 be 43 f4 47 be
       -0.0953241 -0.2696403 -0.19170995 -0.19526772
000250 96 dc a9 3b 00 26 15 be 1f 30 4c be 8d e3 13 be
       0.0051837666 -0.14565277 -0.19940232 -0.14442272
000260 f3 df 82 be 22 15 61 be 79 74 57 be b6 c4 3b be
       -0.25561485 -0.21980718 -0.21040525 -0.18336758
000270 69 28 fc bd 86 d0 ac be 03 5e 2c be d4 af 29 be
       -0.12312395 -0.3375284 -0.16832738 -0.1657098
000280 a4 11 7c be 3e fc e0 bd f0 cc 87 be 0d 0e 10 be
       -0.24616104 -0.109856114 -0.26523542 -0.1406786
000290 01 16 3f be c7 03 31 be 82 18 76 be 27 12 e4 bd
       -0.18660738 -0.17286597 -0.24032786 -0.11136275
0002a0 01 28 35 be 39 38 23 be d3 a8 6c be c5 e5 55 be
       -0.17691042 -0.15939416 -0.23111276 -0.20888431
0002b0 67 f2 62 be 59 21 48 be 85 53 f4 bd 5f 20 5b be
       -0.22162782 -0.19543971 -0.119299926 -0.21399067
0002c0 34 52 87 be 2d 78 90 be ee db 47 be 27 1c d2 bd
       -0.26429904 -0.28216687 -0.1951749 -0.10259276
0002d0 88 29 06 be cd 57 5b be 47 bc bb bd 98 18 42 be
       -0.1310178 -0.21420212 -0.091667704 -0.18954694
0002e0 77 99 6b be 73 61 86 be 77 41 f9 bd e7 9c 60 be
       -0.23007761 -0.26246223 -0.121706896 -0.21934853
0002f0 5a b7 2d be 95 2a 59 be b8 1f 10 be e1 a8 57 be
       -0.16964474 -0.2120765 -0.140746 -0.21060516
000300 c0 d4 8c be fd 82 62 be 90 51 97 bd 73 a0 e1 bd
       -0.27506065 -0.2212028 -0.07388604 -0.110169314
000310 bc f5 36 be a3 af 33 be 7f 4b 6d be b8 b0 8c be
       -0.17867178 -0.17547469 -0.2317333 -0.27478576
000320 63 16 5e be 5d 4b 45 be 2e 56 93 be 5f c7 4c be
       -0.21688227 -0.1926703 -0.28776687 -0.19997929
000330 d1 2d 87 be 42 cb 45 be c6 bb 6f be bf 95 10 be
       -0.26402143 -0.19315818 -0.23411474 -0.14119624
000340 55 19 42 be ff f9 8b be 4b 95 af be 21 3c 08 be
       -0.18954976 -0.2733917 -0.3429359 -0.13304187
000350 aa 23 d0 bd c9 10 eb bd 58 2c 08 be df 25 77 be
       -0.101630524 -0.11477811 -0.13298166 -0.2413554
000360 88 53 33 be a3 4f e3 bd a9 41 1b be 21 f0 15 be
       -0.17512333 -0.11099174 -0.15161766 -0.14642383
000370 aa d9 71 be 01 00 6f be 01 d4 27 be 40 7d 14 be
       -0.23618189 -0.23339845 -0.16389467 -0.14500904
000380 9a 98 01 be 7c 76 82 be ad 59 49 be fd cc 0b be
       -0.12655869 -0.2548102 -0.19663115 -0.13652416
000390 ea 76 a1 be be 34 69 bc 8c 7b 3e be bc 9d 6d be
       -0.31536037 -0.014233766 -0.18601817 -0.23204702
0003a0 03 8e 34 be 50 92 27 be 0a e8 64 bd 95 87 12 be
       -0.17632298 -0.16364408 -0.055885352 -0.14309533
0003b0 7a ea 54 be 26 87 3e be b1 8d 89 be 3f b4 ad bd
       -0.2079257 -0.18606243 -0.26865914 -0.08481645
0003c0 bc 89 71 be 45 0a 93 be d5 be e6 bd 4c 26 43 be
       -0.23587698 -0.28718773 -0.11266867 -0.19057578
0003d0 40 88 43 be 87 31 2c bd e5 bf 86 be db cf 0b be
       -0.19094944 -0.04203942 -0.2631828 -0.1365351
0003e0 37 58 87 be 19 67 a1 be aa 86 10 be 30 3e 2f be
       -0.2643449 -0.3152397 -0.1411387 -0.17113566
0003f0 dd d4 48 be 30 ca 3a be 45 00 2f be 95 3c 65 be
       -0.19612451 -0.18241191 -0.17089947 -0.22386391

fc2.weight f4 [300, 404]
000000 f6 eb 1f 3d 1c 9f 2f be 1d 02 d1 be be b0 56 3d
       0.03904339 -0.17150539 -0.40821925 0.05241465
000010 1a 51 55 38 f1 63 48 bd f9 eb 62 bd 0d a1 43 3e
       5.085869e-05 -0.048923437 -0.055400822 0.19104405
000020 b8 69 67 be 5e e0 bb bd 89 19 3c be 31 b2 75 be
       -0.22598922 -0.09173654 -0.18369116 -0.23993756
000030 15 28 f8 3d 18 c2 d1 3d 01 16 4b bd 27 fd 8f be
       0.1211702 0.102420986 -0.04958153 -0.28122827
000040 d6 87 27 3e d1 3b 96 3c 64 95 a6 3d 24 43 af 3d
       0.16360411 0.01833907 0.08133963 0.08557728
000050 e8 e0 84 3d e5 87 fc bd 8a 4f 8f 3e 04 f9 2c bf
       0.0648821 -0.12330607 0.2799037 -0.6756747
000060 e0 e9 a2 be ea c9 4b be 67 23 83 3c 1d 62 a1 bd
       -0.31819057 -0.19901243 0.016008092 -0.07880042
000070 6b 63 2d be ec 49 3d 3e ba a2 75 3e ab 7e 22 3e
       -0.16932456 0.1848523 0.23987857 0.15868632
000080 a3 64 8d 3c 2e 39 08 3c 7f 4d 00 bf e3 e6 6c be
       0.017259901 0.008314414 -0.5011825 -0.23134951
000090 48 e8 87 3e 14 26 9b be 97 cc 35 bb c8 dc 4c 3d
       0.26544404 -0.3030249 -0.0027740353 0.05001524
0000a0 c1 d3 46 3e 49 b3 cc bd fd d7 35 bc 32 e0 43 be
       0.19416715 -0.099951334 -0.011098859 -0.19128492
0000b0 d4 e4 20 be ae a8 1f be a1 7e 93 3e 2f 7b df 3d
       -0.15712291 -0.1559169 0.28807548 0.10912167
0000c0 eb ce 81 be d1 d0 26 be 7b 23 5b bd e0 48 9e bd
       -0.25353178 -0.16290595 -0.053500634 -0.077287436
0000d0 2c 53 03 3e 1f e9 81 3d 39 1a 19 bd 16 4c 75 3e
       0.12824696 0.063432924 -0.037378523 0.23954806
0000e0 38 4e 24 3e 33 58 d8 bd ed 45 62 3d 58 9d 97 3d
       0.16045463 -0.10563698 0.055242468 0.07403058
0000f0 1c 56 16 be 75 c7 82 3d 8f 9d 29 3d 4d 85 20 be
       -0.14681286 0.063857 0.041410025 -0.1567585
000100 d3 3c ee bd 1d 7b f2 3c 90 de d6 3d d3 d0 9f be
       -0.11632695 0.02959972 0.10491669 -0.31214008
000110 1a a4 cf 39 a1 ca 5d be 12 24 bb 3d 11 e1 8c be
       0.00039604382 -0.21659328 0.09137739 -0.27515462
000120 23 5a 35 be 4a 40 14 bc c8 ad 8a bd f6 82 ff bd
       -0.17710166 -0.009048531 -0.067714274 -0.12476151
000130 bd 9d 27 be 50 13 d1 3d e4 c5 d4 bd 83 d5 60 bd
       -0.16368766 0.10208762 -0.10389307 -0.05489112
000140 9f 78 41 bc 49 4e a2 3d 54 11 31 be e1 05 2b 3c
       -0.0118085435 0.07925088 -0.17291766 0.010438413
000150 ab 27 6b bd 9f 27 42 bd 05 26 4b 3c 08 2b eb bd
       -0.057410877 -0.047401067 0.012399201 -0.11482817
000160 10 a5 05 3b c2 39 3e bf 08 0e 98 bd c1 cd 60 3d
       0.0020392574 -0.7430688 -0.07424551 0.054883722
000170 20 9a cf 3c 11 43 b4 bd f2 50 f0 3d 15 13 43 be
       0.025342047 -0.088018544 0.11734189 -0.19050248
000180 8b cf e5 3d bc f4 2b bf f5 06 95 be fc 40 84 be
       0.11221226 -0.6717031 -0.2910687 -0.2583083
000190 f8 03 b3 3e ff d4 9b 3d 8f df bf bd 2e 5f b7 be
       0.34963965 0.07608985 -0.09368812 -0.35814804
0001a0 d5 03 d7 3e 92 30 51 3e cf 2e 81 3e 6f b9 17 3e
       0.4199511 0.20428684 0.25231025 0.14816831
0001b0 4e ad 90 3d 7d 8b b2 be 73 9a 06 3e dd c5 31 be
       0.07064305 -0.34872046 0.13144855 -0.17360635
0001c0 2b 4d fc 3c 53 eb 97 3e 82 6f d2 3b 35 cb d5 be
       0.030798515 0.29671726 0.006421984 -0.41756597
0001d0 a6 25 da be d1 47 18 be 6b 85 fd 3d 56 48 66 be
       -0.42606848 -0.14871146 0.12378963 -0.22488531
0001e0 96 59 ac 3d 35 60 17 be d1 47 0b 3d 75 5a 02 bf
       0.08415525 -0.14782794 0.034004036 -0.50919276
0001f0 77 d2 30 be 77 f6 ad bc 0d f0 a1 be d2 3c 57 bf
       -0.17267786 -0.021235688 -0.31628457 -0.8407718
000200 e9 87 c0 bd 2e 0a ed be bf 61 62 be 75 50 3f 3d
       -0.09400923 -0.4629683 -0.221076 0.04670759
000210 1a dd e1 3d 10 04 d7 be da d2 c3 be 7c 4a 17 bd
       0.110285 -0.41995287 -0.38246804 -0.03693627
000220 b8 57 00 bf a6 bd 0e be e2 db 8b be e5 df c2 3d
       -0.5013385 -0.13939533 -0.27316195 0.09515361
000230 43 b7 a0 be 3a 32 38 3c d9 13 02 be ac 45 5e bd
       -0.31389818 0.011242444 -0.12702884 -0.054265663
000240 87 7b df 3d 24 8a de bd 34 2a 05 be 98 17 8a 3d
       0.10912233 -0.10866192 -0.1300438 0.067427814
000250 00 96 79 be ae bb c6 3d 48 66 13 be 35 fb ef be
       -0.24373627 0.09703766 -0.14394486 -0.46871343
000260 6a 45 a5 be 0b 54 9b 3e 81 4a 28 be 2a b9 45 be
       -0.3227952 0.30337557 -0.16434671 -0.19308916
000270 7d 8b 88 bd f4 5c 5c be 66 6d 48 be db 71 8e 3d
       -0.0666723 -0.21519834 -0.19572982 0.0695531
000280 39 20 53 3d a5 fe 21 be 32 6c 8c 3e 10 90 24 be
       0.0515444 -0.15819795 0.27426296 -0.1607058
000290 30 42 61 3e 1b c6 09 be ea 45 bc 3d e1 c3 50 be
       0.21997905 -0.13454477 0.091930225 -0.20387222
0002a0 cb 0c 6b 3e 3e 04 f8 3d 96 8f fc be 1f 74 09 3c
       0.22954099 0.12110184 -0.49328297 0.008389502
0002b0 b6 cb f0 3d 9c 7e 08 bf 03 ba 85 3e 5a ab b5 bd
       0.11757605 -0.5331819 0.26118478 -0.08870573
0002c0 1e 11 04 3e c8 e0 09 bf 6e 62 21 bd 83 a6 91 3c
       0.12897155 -0.53858614 -0.03940051 0.017779594
0002d0 cf 09 4e be 37 55 00 3e be 1d 52 3d 76 4f 36 3e
       -0.20120929 0.12532507 0.051297896 0.1780375
0002e0 21 86 1f be 74 b2 24 bd 88 cd cd bd ef a4 ab 3d
       -0.1557851 -0.04020925 -0.100489676 0.08381068
0002f0 be 25 e6 be b2 87 cd bd d7 bd 35 3e ce ac c7 be
       -0.4495067 -0.100356475 0.177482 -0.38999027
000300 b3 88 b7 bc 32 7b 9a bc 42 b1 64 bd 74 a2 59 bd
       -0.02240405 -0.018857572 -0.05583311 -0.053133443
000310 ba 19 95 3e bd 01 d2 be de e3 8c 3d e0 f7 ea 3e
       0.2912119 -0.4101695 0.068794 0.4589224
000320 27 7c e3 3d 08 d7 02 be 4d 08 be be 8c a6 3d be
       0.111076646 -0.1277734 -0.37115708 -0.18520564
000330 25 8c ec bd 11 12 f8 bd ce 8e db 3c d6 15 1f 3e
       -0.11550168 -0.12112821 0.026801493 0.15535673
000340 06 97 9e be f4 95 b4 be be 68 03 bf e0 9d 0c be
       -0.30974597 -0.35270655 -0.513317 -0.137321
000350 24 68 1e 3e 78 c9 9f 3d 3b 63 ba 3d 6b 41 5f 3e
       0.15469414 0.07802099 0.09100958 0.21802299
000360 8a 53 22 be fc 31 00 be 51 ed 8c 3c d4 2c 4f 3d
       -0.1585218 -0.12519068 0.017203005 0.05057986
000370 5a 5c 97 be bf 73 72 3e 59 62 05 bf af 04 84 be
       -0.29562646 0.23676966 -0.5210319 -0.25784823
000380 01 71 8a bc 98 4d 09 3e a5 9e d8 be 53 da 02 3e
       -0.016899588 0.13408506 -0.42308536 0.12778597
000390 81 8d cb 3d 76 ca e1 3d 81 90 c9 bd c5 8e a8 3e
       0.09939099 0.110249445 -0.09842015 0.32921425
0003a0 cb dc 1b bd dc 99 77 3d 87 5d f6 3c 22 c0 5d bf
       -0.03805236 0.060449466 0.030073894 -0.86621296
0003b0 75 97 43 3c cb c8 f8 bc 87 42 29 3d 03 d9 59 3d
       0.011937966 -0.030369183 0.04132321 0.053185474
0003c0 2d d8 37 bd ea df bb bd 13 d5 81 be 25 d0 d7 3e
       -0.044883896 -0.091735676 -0.25357875 0.4215099
0003d0 8e 6c 1c 3e ef 7c 19 be 7d 6d ad bd 84 9d 60 be
       0.15275785 -0.14989065 -0.08468149 -0.21935087
0003e0 2d eb 81 3d 12 69 ba be 55 26 f0 be b8 af c7 3d
       0.06343684 -0.36408287 -0.46904245 0.097503126
0003f0 cc ee 4d be 53 c0 28 be 91 4c 87 bd ad 3c d0 3c
       -0.20110625 -0.16479616 -0.06606401 0.025419557

fc2.bias f4 [300]
000000 d5 bd 08 bc 8b 30 29 3c 3c c6 c5 bd 61 13 51 bd
       -0.008346041 0.010326515 -0.09656951 -0.05104387
000010 0c 0c 8b bd 1a ea 13 bd 41 ce 56 be 10 1e ec bd
       -0.06789407 -0.03611193 -0.20977117 -0.115291715
000020 9a 16 bb 3d df 69 90 be 79 29 47 be 87 c3 0a be
       0.0913517 -0.28205773 -0.19449414 -0.1355115
000030 6a 1f 6f be bd 11 e7 bd 77 06 dc bc 66 b7 65 be
       -0.23351827 -0.1128268 -0.026858551 -0.22433242
000040 fe a8 6d 3e d4 f1 1d be 21 82 61 be 7d 67 42 bd
       0.23208997 -0.15424281 -0.22022296 -0.047461975
000050 6c 2b b1 bd 20 60 56 be 5a 46 17 3d 6a ed 12 3e
       -0.0865086 -0.20935106 0.036932327 0.14348379
000060 e7 df 17 bc 6f 7f bd bd 78 88 41 be c2 30 40 bd
       -0.009269691 -0.09252822 -0.18899715 -0.0469215
000070 5d 3c 3f bd bb 88 39 be 80 dd 15 bd 33 e9 01 3e
       -0.046688426 -0.18118565 -0.036588192 0.12686615
000080 01 b4 12 be 4b 58 10 be bf 1a 0d be c0 49 2e be
       -0.14326479 -0.14096181 -0.13779734 -0.17020321
000090 12 8b 84 bd f5 67 67 3d a5 14 54 bd 64 ac 62 be
       -0.06471838 0.056495626 -0.0517775 -0.22136074
0000a0 16 e4 e8 3c 35 f3 0c be ce f4 40 bd 18 57 c4 bd
       0.028429072 -0.13764651 -0.047108464 -0.09586924
0000b0 61 c4 1e be 13 e8 3d be 8c 27 11 be 7a ec 39 3e
       -0.155046 -0.1854556 -0.14175242 0.18156615
0000c0 35 ac 1a bd 10 14 79 3d 6b a5 65 3d a0 c3 79 3d
       -0.037761886 0.06081015 0.056065958 0.06097758
0000d0 0e 9a da bd 7b 7a 63 3d 3c a0 85 be c9 25 d5 bd
       -0.10673915 0.05553673 -0.26098812 -0.104075976
0000e0 69 b0 4e be 23 be 80 3d b0 1c 17 be d6 bb f1 bd
       -0.20184483 0.06286266 -0.14757037 -0.11803405
0000f0 46 8a 4b be 0f 46 2b be 65 c3 f1 bd 2f 49 94 bd
       -0.19876966 -0.16725944 -0.11804847 -0.07240521
000100 e3 4f c6 bd ff 91 e4 3d ba 09 ad bd 1c 24 25 3c
       -0.09683206 0.11160659 -0.08449121 0.01007941
000110 3f a8 39 be f4 c8 21 3e aa 1b 02 be b1 ed 10 be
       -0.18130587 0.15799314 -0.12705866 -0.14153172
000120 27 a4 24 3e 43 0e 8a bd f7 9c 57 be 72 87 c2 3c
       0.16078244 -0.067410015 -0.21055971 0.023746226
000130 28 4b 07 3e eb 51 eb bd 41 2e f5 3d 26 b0 ea bc
       0.13212264 -0.11490234 0.11971713 -0.028648447
000140 bd 3d a3 be 90 05 40 bd c0 d7 18 3e 2f 6b c8 bd
       -0.3188304 -0.046880305 0.14926052 -0.09786069
000150 8b d6 8c be b1 d7 44 be 6a bb 24 be d6 7a c8 bd
       -0.27507433 -0.19222905 -0.16087118 -0.09789054
000160 11 1a bc 3e 17 04 66 be 86 f6 6e 3e 2d b6 31 bb
       0.36738637 -0.22462498 0.23336229 -0.0027116642
000170 c4 cc af bd b7 06 a7 bd 5d 5e 95 bd c9 2b bc 3b
       -0.08583978 -0.08155578 -0.07293389 0.0057425243
000180 b3 76 bc bc 59 db b0 bd 94 eb 8a be 4d 35 f6 bd
       -0.023005819 -0.08635587 -0.27132857 -0.12021885
000190 e0 eb 33 3d 25 2a c1 3c 79 6a 8d 3d 9f b6 aa bd
       0.04392612 0.023579666 0.06905074 -0.083356135
0001a0 29 ec d8 be 66 ed 2f be b8 67 52 bf 04 70 6d 3c
       -0.42367676 -0.17180404 -0.8218951 0.014492039
0001b0 5f 38 85 bd 11 17 1f be 26 af 0f be 9b f1 2b be
       -0.065048926 -0.15536143 -0.14031658 -0.16791384
0001c0 e1 7f 9f bc ce f9 d6 bd a4 d8 7b 3d 76 bb 99 3e
       -0.019470157 -0.10496865 0.0614859 0.30025834
0001d0 bf 4e 87 be aa 8c 46 3d 41 38 59 3e 07 65 de bd
       -0.26427266 0.04847399 0.21212865 -0.10859113
0001e0 ee d6 4a bd d8 e9 bb bd 03 e4 d3 3d a6 74 df bc
       -0.04952138 -0.091754615 0.10346224 -0.027277302
0001f0 2d 41 27 be d4 a6 e2 3c 21 5a b9 bc 2b f4 63 3e
       -0.16333456 0.02766744 -0.022625985 0.22261111
000200 bd 7f 4b 3e 3c b0 28 bd b9 7b 3d 3e f2 65 89 bd
       0.19872947 -0.041183695 0.18504228 -0.06708898
000210 8a 14 18 be db 67 b9 bd 55 bf 9c be 73 01 ba 3c
       -0.14851585 -0.09053012 -0.30614725 0.02270577
000220 43 49 aa bd 59 0b cf bd 54 fc bd 3a bf 8d 40 3d
       -0.08314755 -0.10109586 0.0014494755 0.04701018
000230 c2 37 7a 3e 46 df 62 be 8f 37 2c be 1d d5 78 3e
       0.24435332 -0.22155485 -0.16818069 0.24300046
000240 a9 9c 42 be 5d 24 e6 3d f0 70 19 be 39 5a 06 be
       -0.19005074 0.112374045 -0.14984488 -0.13120355
000250 79 88 a2 bd 83 d5 ed 3d 19 0e 0f be 0f bf e1 3d
       -0.07936186 0.1161299 -0.13970222 0.1102277
000260 ea 3c 1e be e9 45 85 bd 4c e4 25 3e 6e a8 f3 bd
       -0.15452924 -0.06507475 0.1620037 -0.1189736
000270 e3 97 8e be 08 a8 52 bc 9b b7 65 be d8 cb c0 3d
       -0.27850255 -0.012857445 -0.22433321 0.0941388
000280 4a 11 c5 3c 9a d9 33 be 33 f8 37 3e ea 6a 47 be
       0.024056096 -0.17563477 0.17965774 -0.19474378
000290 e1 6e 23 be dc 78 76 3b 16 2c 74 be cf 98 3a be
       -0.15960266 0.003760866 -0.23844942 -0.18222354
0002a0 3e f0 48 be d2 eb c1 bd 43 15 05 bd be b9 05 bd
       -0.19622895 -0.09468807 -0.03249098 -0.03264784
0002b0 33 18 54 bd dc 10 b8 bd c7 86 49 be fc c6 5d 3c
       -0.05178089 -0.08987591 -0.1968032 0.013536211
0002c0 1a ec ea 3d 5d 96 0d be b3 a4 35 be 85 03 3b be
       0.11470814 -0.1382689 -0.17738609 -0.18263061
0002d0 39 17 b7 3d 01 6d 87 3d 74 24 04 be 55 75 d5 bd
       0.08939976 0.06612588 -0.12904531 -0.1042277
0002e0 f6 5f 66 be 27 58 e4 bd b8 bd 6d 3e 8b e7 60 3e
       -0.22497544 -0.11149626 0.23216903 0.21963327
0002f0 d1 e7 14 3e 2a 30 ff bd af a1 05 bd a8 36 43 3d
       0.14541556 -0.124603584 -0.032624897 0.047659546
000300 3c 57 69 be be a3 17 be d8 b2 30 be 1e 01 ef 3e
       -0.22787184 -0.14808556 -0.17255723 0.4668054
000310 2b 42 14 be 41 32 07 3e 4f f8 8e be 3e e3 2e be
       -0.14478366 0.13202764 -0.2792382 -0.17078874
000320 95 0e 6f be 37 57 d7 bd e2 c4 b2 bd 64 9b 07 3d
       -0.23345406 -0.10514682 -0.08728959 0.033107176
000330 e0 12 92 be 15 e0 42 be cf 1f 4a 3d 70 9f 78 3d
       -0.28530025 -0.19030793 0.04934674 0.060698926
000340 8a 41 66 be 86 65 88 bd ce b6 a8 bd 2e e4 8a be
       -0.22485939 -0.06659989 -0.08237992 -0.27127212
000350 88 b3 19 3d eb 26 b5 3d 5d 79 20 be a2 a4 dc bd
       0.03752473 0.08845314 -0.15671296 -0.10773589
000360 62 85 a0 bd 85 a3 b6 3d 3a bf a0 3d 53 6f 33 bd
       -0.07837941 0.089179076 0.078489736 -0.04380734
000370 a7 42 0a be d1 9e 8a bd dd ca 00 3c fc 71 cd bd
       -0.13501988 -0.06768573 0.007860866 -0.100315064
000380 3f af 29 be 58 84 08 3e 5b a5 e3 bd a8 e4 35 be
       -0.16570757 0.13331735 -0.111155234 -0.17763007
000390 59 d6 6a 3c 9e 3c 0f 3d a2 aa 04 3d aa d0 69 bc
       0.014333331 0.03496992 0.03238929 -0.014270941
0003a0 d5 e9 08 bd 83 f2 89 be cc af 43 3d bc dc a7 3d
       -0.033426125 -0.26942834 0.047775075 0.081963986
0003b0 41 93 89 bd c3 e2 d8 bd 41 2d 4e be ec 58 15 3e
       -0.067175396 -0.10590126 -0.2013445 0.14584702
0003c0 cc 90 e4 3c 68 41 ea bd 93 ea ba bd d6 ad ba 3d
       0.027901076 -0.114382565 -0.09126773 0.09115188
0003d0 18 0e 91 bd 02 19 3c bd cc 32 40 be ab 7d 98 bd
       -0.07082766 -0.045922287 -0.18769377 -0.07445844
0003e0 e9 08 f1 3c 46 2d bd 3d 3f b8 04 3d e3 1a ff bd
       0.029423194 0.09237151 0.032402273 -0.124563
0003f0 5f 99 b6 bd 0c c8 26 be aa bd 1a bd a7 6b 8d bd
       -0.08915972 -0.1628725 -0.037778534 -0.06905299

output.weight f4 [1, 300]
000000 77 57 33 3d 22 7c 98 bd 41 4e b3 3d 41 83 28 3d
       0.043784585 -0.074455515 0.0875516 0.0411408
000010 e5 d0 97 3d 0f 1a 8b 3d 0e a0 61 bd 81 84 93 bd
       0.0741289 0.0679208 -0.05508428 -0.072030075
000020 08 ea 57 3d 84 e4 38 bd b2 2b b3 bd e1 77 89 3d
       0.052713424 -0.045139804 -0.087485686 0.06712318
000030 43 77 a1 bd 74 72 9a 3d 6d 04 fd 3c 7b 4a 2d 3e
       -0.078840755 0.075413615 0.0308859 0.16922943
000040 9d e1 ab 3c 73 54 ba 3d 48 94 73 bd 2c f6 99 bd
       0.020981604 0.09098139 -0.059467584 -0.07517657
000050 7e ed a6 3d 77 c7 b7 bd 03 0b 98 3c 82 13 04 3d
       0.08150767 -0.08973592 0.018559938 0.032245167
000060 37 1e 86 bd e9 83 1d 3d 23 b7 4a bd 0a ed b8 3d
       -0.06548732 0.038455877 -0.04949106 0.090295866
000070 40 ee 23 bd 8b 7b d1 3d 2b 93 1e 3d 72 b1 31 3d
       -0.040022135 0.10228642 0.03871457 0.043382116
000080 bc ce b7 3d 76 a7 1e bd bf 8d d8 3d 39 b1 eb bd
       0.08974978 -0.038733922 0.10573911 -0.11508412
000090 13 73 c8 bd 97 19 91 3c a1 d4 96 3b 26 e6 39 bd
       -0.09787574 0.017712398 0.004602984 -0.045385502
0000a0 9e c7 31 3d 29 10 d2 bd 03 89 28 3d b9 7b 2b 3d
       0.04340326 -0.102569886 0.04114629 0.041866038
0000b0 95 d7 35 bd b0 5a c6 bd 42 33 4b bd 4d 7e b9 bc
       -0.04439505 -0.09685266 -0.04960943 -0.022643233
0000c0 d0 87 29 bd 57 47 eb bc bd d1 0c 3d 22 d6 a6 3c
       -0.041389287 -0.02872054 0.03437971 0.020365778
0000d0 88 d3 98 3d 84 7c 3b 3d b3 bd 94 bb 82 0c 8e 3d
       0.074622214 0.045773044 -0.0045392155 0.069359794
0000e0 b2 04 10 bd ea d7 14 3d 8a 54 99 bd b5 3c db 3d
       -0.035160728 0.036338724 -0.07486828 0.10704938
0000f0 86 8e d0 3d e2 ec 95 bd 4e a9 c3 3d a8 48 a2 bd
       0.10183434 -0.073205724 0.09553777 -0.07924014
000100 90 d8 1e 3d 8e b2 b0 3c b4 2a 39 3d 83 5e 0a 3d
       0.03878075 0.021569517 0.04520674 0.03378154
000110 cc 0b 5b 3d a2 6f d8 3c df a9 0d bd 1e e4 4e bd
       0.053478047 0.026420418 -0.03458583 -0.05051052
000120 b2 8b 1a 3d 02 c5 b1 bd e6 0d 41 3e de 3e 5e 3d
       0.03773088 -0.086801544 0.18852958 0.054259174
000130 5b 5e a7 3c 53 85 c0 3d 53 2a 5d bd 27 65 4a bd
       0.020430734 0.094004296 -0.05399544 -0.049412873
000140 f6 97 79 bd 79 03 65 3c bc 67 19 bd 15 d6 d8 bc
       -0.060935937 0.013977879 -0.037452444 -0.02646927
000150 a7 4c 98 bd e0 20 00 bd da 2e 21 be 77 30 0b 3d
       -0.07436495 -0.031281352 -0.15740529 0.033981767
000160 d3 c1 aa 3c 58 32 36 bd c3 fd f6 3c f3 ff 45 3d
       0.020844376 -0.044481605 0.0301503 0.048339795
000170 99 86 14 be c7 1b 21 3d a3 79 79 bd 8c af 07 3d
       -0.1450447 0.03933313 -0.060907017 0.0331264
000180 8d 18 05 3d 07 12 95 bd ac 76 d9 bc e7 c9 04 be
       0.032494117 -0.07278829 -0.026545845 -0.12967645
000190 f9 00 b6 3d b4 4c e6 3c 9a 43 62 3d dc 71 d9 bc
       0.08886904 0.028112747 0.05524025 -0.02654355
0001a0 1c be 1c bd cf f9 bc bd c1 d8 8c 3d 3d e1 d2 3c
       -0.03826724 -0.09227335 0.0687728 0.025742168
0001b0 ad 0f 4c 3e 4f 8f 15 3d 34 cf b5 bd 0e 52 d1 bd
       0.19927855 0.036513623 -0.088774115 -0.10220729
0001c0 64 c1 48 3d 7e 98 d6 3d 39 27 16 bd a4 e3 23 bd
       0.049012557 0.10478304 -0.0366585 -0.040012017
0001d0 50 56 94 bd a0 1d 3f 3d 75 b0 45 bd cf 17 26 bd
       -0.07243025 0.046659112 -0.048263986 -0.04055005
0001e0 f5 89 ca bd 30 ca e9 3d 36 b3 d7 bc 00 66 5f 3d
       -0.098895945 0.11415517 -0.026330572 0.054540634
0001f0 76 f0 13 3e 91 12 09 3d 44 3e 06 3d 68 ee b0 3c
       0.14447197 0.033464972 0.032774225 0.021598056
000200 e2 33 66 3c 62 a2 70 bd f3 1e bb 3c 91 6f 56 3d
       0.014050456 -0.05874861 0.022841906 0.05235249
000210 6c 85 9c bd 08 fe a2 bd 07 b8 89 bd 13 8e 3f bd
       -0.07642636 -0.07958609 -0.067245536 -0.046766352
000220 1e 2a 75 bd 60 6e ac 3d 98 b5 07 3d 42 04 23 3d
       -0.05985462 0.0841949 0.033132166 0.039798982
000230 12 26 d8 3c 01 7a aa bd 0c fa 10 3e 0e 3a bd 3c
       0.02638534 -0.08324052 0.14157885 0.023098972
000240 c5 6e da bc 2d 81 2f 3d 8c 10 70 3d b1 1a 30 bd
       -0.026664147 0.0428478 0.05860953 -0.042994205
000250 30 e6 6b be f5 55 e4 3c 30 64 50 bd d2 27 8b 3c
       -0.23037028 0.027873019 -0.050876796 0.016986761
000260 c8 03 04 bd 4e 5d c1 bc 79 f0 7f 3d aa 58 72 bd
       -0.03223017 -0.023604061 0.062485192 -0.059166588
000270 80 5d 3e bd 95 09 43 3d 17 12 b4 bd 38 b9 02 3d
       -0.046475887 0.04761656 -0.08792513 0.03191492
000280 0c 67 32 bd a0 0d 7b 3d dd 58 e2 3c bd 3a 71 bd
       -0.043555304 0.06129229 0.027630264 -0.058893908
000290 95 1b 46 bd c4 1d 4f bd ca d3 fb bd 2b a1 c4 bd
       -0.048366148 -0.050565496 -0.12296255 -0.09601053
0002a0 04 14 e9 bd b6 9f 23 be e5 00 80 3d 46 33 8d bd
       -0.11380771 -0.15978894 0.062501706 -0.06894545
0002b0 2c 68 f4 3c 85 26 a0 3d 28 9c 88 bd 19 76 26 3d
       0.02983483 0.07819847 -0.066704094 0.04063997
0002c0 9c 77 8e 3c 83 01 6d bd dd e0 05 bd 64 34 a3 bd
       0.017391019 -0.05786277 -0.03268515 -0.07968977
0002d0 dc b7 f5 3c bc 0a 00 3d a7 1f 04 bd 1f 84 ab 3d
       0.029994898 0.031260237 -0.03225675 0.083748095
0002e0 ee 03 1d bd 77 2b c9 3d b4 61 4f bd c7 57 69 3c
       -0.038333826 0.098227434 -0.050630286 0.014242119
0002f0 2f 4d 14 3d 00 e6 7f bd 14 31 f1 3c 3f 1a 2a 3d
       0.03620642 -0.062475204 0.029442348 0.041528936
000300 a3 7b 5b be de 21 0c 3e 82 76 4d bd ce 4e 54 3d
       -0.21433882 0.13684794 -0.050161846 0.051832967
000310 9b 52 f0 3d 4e 6f 94 3c a1 c1 76 bd b7 a9 09 bd
       0.11734506 0.01811948 -0.060243253 -0.03360912
000320 50 4b 7a bd b8 32 88 3d 3a 8d 86 bd c5 b2 2e 3d
       -0.06110698 0.06650299 -0.065699056 0.042650957
000330 de d3 65 bd 77 23 4f bd 51 93 9d bc 0a 25 81 3d
       -0.056110255 -0.05057093 -0.019235285 0.06305893
000340 9e 71 c0 3d dc 90 8d 3d 2c 10 0f bd 98 c1 3a bd
       0.09396671 0.06912395 -0.034927532 -0.04559478
000350 22 9b 8f 3c e0 cb cb 3c a4 b7 e0 bd 28 52 1b bd
       0.017530028 0.024877489 -0.10972527 -0.037920147
000360 c8 9c 51 bd ae 37 df 3c 9a 28 d6 bc b0 6d 12 3e
       -0.05117491 0.02724823 -0.026142407 0.14299655
000370 78 e0 c3 3d e2 22 95 bd 06 98 5c 3d 6e 28 be bd
       0.095642984 -0.07282044 0.05385592 -0.09285055
000380 a9 1f 89 bd be 7e 36 bd 39 68 01 3d a6 38 15 bd
       -0.06695492 -0.044554465 0.031593535 -0.036430977
000390 be 13 43 bd 07 49 98 bd 44 24 f8 bc 7a 83 0c bd
       -0.04762625 -0.07435804 -0.03029073 -0.034305073
0003a0 5d 1a 03 bd 8c 27 88 bd d6 91 11 bd 0a 68 11 3d
       -0.032007564 -0.06648168 -0.03553947 0.03549961
0003b0 0a 51 28 3d c4 8f 99 3d be 20 b3 bd 03 f1 bf 3c
       0.04109291 0.07498124 -0.087464795 0.023430353
0003c0 35 8c 23 3e 59 6d 76 bd 71 5f 08 bd 86 c5 cc 3c
       0.15971453 -0.060162876 -0.033294145 0.02499653
0003d0 e5 32 80 3d e3 d0 f1 3c 71 5e 36 bd 2d 3d 81 3d
       0.06259707 0.02951855 -0.04452366 0.063104965
0003e0 2b 33 e9 3c 03 6e 8a bd 1b f8 d1 3c e6 81 56 bd
       0.028466782 -0.06759264 0.025631001 -0.052369975
0003f0 74 30 5b bd 2e 6c 4c 3e 70 df 8e bd 9f 17 82 bd
       -0.053513005 0.19963142 -0.06976211 -0.063521616

bn1.weight f4 [48]
000000 73 19 2d 3e a1 d8 84 3e ef bd db 3d 1c 7e 73 3d
       0.1690424 0.25946525 0.10729586 0.05944644
000010 5f 51 93 3e 86 08 53 3e 19 57 01 3e 3b 90 0b 3e
       0.2877302 0.2060872 0.12630881 0.13629238
000020 fd f6 1c 3e 58 87 1f 3b 83 f5 8e 3e 35 67 3f 3e
       0.15328594 0.0024342146 0.27921686 0.18691714
000030 1d cc b0 38 17 fa 95 3c ba 61 b9 ba be 33 b8 b9
       8.430353e-05 0.018307729 -0.0014143505 -0.00035133766
000040 b2 a9 8c 3e c2 96 a6 3e b3 99 ae 3d ab 4c ed bb
       0.27473217 0.32536894 0.085254095 -0.0072418055
000050 5b 39 9e 3e 35 44 dd 3d 1a 02 6b 3e 93 a2 bd 3e
       0.30903134 0.10804025 0.2295002 0.37038097
000060 ad 3c 47 3e 00 8a 59 3e 49 ce 6a 3e ea fb 2f 3d
       0.1945674 0.21244049 0.22930254 0.042964853
000070 92 e2 a2 3e 65 c2 0a 3f fa dd cc bb 6e 02 39 3e
       0.31813484 0.5420287 -0.0062520476 0.18067333
000080 03 07 c0 3d 63 c8 20 3e c7 e3 39 3d a2 42 b8 3d
       0.093763374 0.15701441 0.04538324 0.08997084
000090 56 9f f7 3b 85 bd ed 3d e5 61 63 3e dc f3 21 3e
       0.007556836 0.116084136 0.22205313 0.15815681
0000a0 5f fd e3 3e 32 c3 91 3e 48 ea 90 3e ce 2a 80 3e
       0.44529244 0.28469235 0.28303742 0.25032657
0000b0 8b be 55 3f 4b 0c 3a 3f c9 4d 13 3b 5e e1 44 3e
       0.8349387 0.7267501 0.0022476783 0.19226596

bn1.bias f4 [48]
000000 4c ab d3 bd e0 3a 94 bd da ec 19 bd 84 50 25 3c
       -0.10335407 -0.07237792 -0.037579395 0.010089997
000010 d4 b3 80 be 50 57 3a 3d 9f 0f 34 bc 4c a6 ab 3d
       -0.25137198 0.045493424 -0.0109900525 0.08381328
000020 2f 98 a6 bd 06 e4 35 bb b6 21 69 bd 47 fb 06 bc
       -0.081344955 -0.002775432 -0.056916915 -0.00823862
000030 59 7c 68 bb 20 c6 0d 3c ef 21 7f 3b 2e e0 49 3b
       -0.0035474508 0.008653194 0.0038930138 0.0030803788
000040 ea 0d f2 3b 33 5a 5a bd 2a 3d e2 bb af e3 1a bb
       0.0073869126 -0.053308677 -0.006904264 -0.0023634245
000050 7d 22 00 be d7 90 09 3c 48 31 32 be 21 17 01 3c
       -0.12513156 0.008396349 -0.17401612 0.0078790495
000060 7f 7e 1a 3e 23 0c 35 be 6e 44 84 3d 0c 6b 17 bd
       0.15087317 -0.17680411 0.064583644 -0.036967322
000070 54 f2 f1 3d b7 ac a6 bd cf 8e 55 3b 6f b8 79 3c
       0.118137985 -0.081384115 0.0032586341 0.015241726
000080 2d 17 13 bb 40 f0 1d be f6 65 ed 3c 24 7c a9 3e
       -0.0022444234 -0.1542368 0.028979283 0.33102524
000090 d6 4e 06 bc c2 b8 e7 bd 3c f0 72 3d fa 81 bb bd
       -0.008197507 -0.11314537 0.059311137 -0.091556504
0000a0 82 3f e3 3d 29 85 55 be 74 7a 36 3d 86 49 3b bd
       0.110960975 -0.20851578 0.044550374 -0.045724414
0000b0 1f 68 67 3e 3c 00 40 3e 99 56 46 3a 1a 8e 84 3d
       0.22598313 0.1875009 0.00075660046 0.06472416

bn1.running_mean f4 [48]
000000 15 c9 9c c0 43 50 d2 be 35 f5 bc 40 cd 79 b7 ba
       -4.899546 -0.4107686 5.9049325 -0.0013998091
000010 8a 01 e5 3e ae 53 73 40 35 f5 bc 40 cd 79 b7 ba
       0.44727737 3.8019824 5.9049325 -0.0013998091
000020 68 85 9e c0 c6 6c d5 be 5f 47 d3 40 67 e7 bb 3d
       -4.953785 -0.4168455 6.6024623 0.09174996
000030 11 d3 d5 3e 31 42 70 40 5f 47 d3 40 67 e7 bb 3d
       0.41762593 3.75404 6.6024623 0.09174996
000040 0b 03 a1 c0 d4 f3 dc be f5 e4 e5 40 42 36 81 bc
       -5.0316215 -0.43154776 7.184199 -0.015772942
000050 74 eb bd 3e 67 2d 6e 40 f5 e4 e5 40 42 36 81 bc
       0.370937 3.7215211 7.184199 -0.015772942
000060 c7 83 ce c0 de bf 30 bf 5f d0 35 40 8b 55 e7 3c
       -6.453586 -0.69042766 2.840843 0.028239032
000070 8a 01 e5 be ae 53 73 40 5f d0 35 40 8b 55 e7 3c
       -0.44727737 3.8019824 2.840843 0.028239032
000080 64 d6 d5 c0 ec 7d 34 bf 3f ee fb 3f 4c 62 d9 bc
       -6.6824207 -0.7050464 1.9682082 -0.02653613
000090 11 d3 d5 be 31 42 70 40 3f ee fb 3f 4c 62 d9 bc
       -0.41762593 3.75404 1.9682082 -0.02653613
0000a0 62 6d db c0 51 26 3b bf 15 6f 2f 40 f9 88 77 bd
       -6.8571024 -0.7310534 2.741155 -0.06043336
0000b0 74 eb bd be 67 2d 6e 40 15 6f 2f 40 f9 88 77 bd
       -0.370937 3.7215211 2.741155 -0.06043336

bn1.running_var f4 [48]
000000 17 2f 7b 41 bb a2 82 3f 50 18 fe 43 dd 10 6e 41
       15.698997 1.0205911 508.18994 14.879117
000010 96 11 fe 41 24 1b 42 40 50 18 fe 43 dd 10 6e 41
       31.758587 3.0329065 508.18994 14.879117
000020 0a c9 74 41 4c ef 84 3f cd e8 00 44 84 bf 69 41
       15.299082 1.0385528 515.6375 14.609257
000030 37 b5 05 42 1e a7 4f 40 cd e8 00 44 84 bf 69 41
       33.426968 3.244575 515.6375 14.609257
000040 b1 8b 78 41 ef fa 86 3f 89 dd 03 44 bd ff 77 41
       15.534104 1.0545329 527.4615 15.499936
000050 22 ab 0e 42 5d 93 65 40 89 dd 03 44 bd ff 77 41
       35.66712 3.5871193 527.4615 15.499936
000060 be 47 7c 41 c4 1a 8f 3f de 14 c6 43 66 13 47 41
       15.767515 1.1180043 396.16302 12.442236
000070 96 11 fe 41 24 1b 42 40 de 14 c6 43 66 13 47 41
       31.758587 3.0329065 396.16302 12.442236
000080 79 e8 6f 41 98 97 91 3f db 82 c9 43 2a 4d 49 41
       14.994256 1.1374388 403.0223 12.581339
000090 37 b5 05 42 1e a7 4f 40 db 82 c9 43 2a 4d 49 41
       33.426968 3.244575 403.0223 12.581339
0000a0 cd fc 6c 41 8f 9b 94 3f 67 fc c2 43 a3 f2 48 41
       14.811719 1.1609973 389.9719 12.5592375
0000b0 22 ab 0e 42 5d 93 65 40 67 fc c2 43 a3 f2 48 41
       35.66712 3.5871193 389.9719 12.5592375
