checkpoint_actor_1.pth (torch_old, 525473 bytes, 10 tensors)

fc1.weight f4 [400, 24]
0	0x3d83e341	0.064398296
1	0xbdd01d29	-0.10161812
2	0xbdba505e	-0.0909736
3	0xbdc273c6	-0.09494738
4	0xbe050582	-0.12990382
5	0xbe5e3d67	-0.2170311
6	0xbd2e3f6f	-0.042540964
7	0xbe51dd66	-0.20494613
8	0x3cf445b4	0.029818393
9	0x3d2b3e3e	0.041807406
10	0x3df2a190	0.11847222
11	0x3d296690	0.041357577
12	0xbe609b73	-0.21934299
13	0xbda279af	-0.079333656
14	0xbd2fb4b1	-0.04289693
15	0xbbbc4408	-0.0057454146
16	0x3d7b3a18	0.0613347
17	0x3a6905c8	0.0008889106
18	0xbdfb5d40	-0.122736454
19	0xbdc7dbe6	-0.09758739
20	0x3cc1c2e4	0.023652501
21	0xbe6694e4	-0.22517735
22	0x3d6dafc6	0.05802896
23	0xbdc17082	-0.09445287
24	0x3dbb6378	0.091498315
25	0xbd62cf65	-0.055373568
26	0x3d9058e6	0.07048206
27	0xbd9532f4	-0.07285109
28	0x3e6a98d6	0.22909865
29	0xbe0986a5	-0.13430269
30	0xbc21f318	-0.009884618
31	0x3cdd58f9	0.027019965
32	0x3df9e9a6	0.12202768
33	0xbd209483	-0.03920413
34	0x3ca62742	0.020282391
35	0xbe071a45	-0.13193615
36	0x3e354688	0.17702687
37	0x3e736a68	0.2377106
38	0xbcd165fd	-0.025561327
39	0xbd94053e	-0.07227562
40	0x3d5419b6	0.051782332
41	0x3d4c0523	0.049809586
42	0x3d31eda5	0.043439526
43	0x3d6a3b7e	0.057185642
44	0x3e845b07	0.25850698
45	0x3ed7968c	0.42107046
46	0xbd902cc4	-0.07039788
47	0xbe00c1c2	-0.12573913
48	0xbdeb301a	-0.11483784
49	0xbb998ce3	-0.0046859845
50	0xbd3a615c	-0.045503005
51	0x3d820f6b	0.06350597
52	0x3d62efeb	0.055404585
53	0xbe14c5c9	-0.14528574
54	0xbd895db0	-0.067073226
55	0xbac4e254	-0.0015021064
56	0x3d8757cc	0.06608543
57	0x3bd2218f	0.006412692
58	0x3e16f82e	0.1474311
59	0x3d5b1aab	0.05349223
60	0xbd97ead9	-0.074178405
61	0xbdc44332	-0.09583129
62	0x3c61acf0	0.013774142
63	0x3c390714	0.011293191
64	0xbde180ac	-0.1101087
65	0x3e3205b4	0.17384988
66	0xbcc056d7	-0.023478908
67	0xbe3ced6c	-0.18449944
68	0xbd33ce9d	-0.043898214
69	0xbe690b4f	-0.2275822
70	0xbe0d81a5	-0.13818987
71	0x3bc104c8	0.0058904625
72	0xbda88023	-0.08227565
73	0x3e05d9f1	0.1307142
74	0x3df76ef6	0.12081711
75	0x3e2220e1	0.15832855
76	0x3e3c0b1a	0.1836361
77	0x3cbd4e26	0.023108553
78	0x3df862c5	0.12128214
79	0x3d954489	0.07288463
80	0x3d384a9e	0.044993035
81	0x3b8e69da	0.0043461146
82	0x3dbfcd48	0.09365326
83	0xb959be61	-0.00020765654
84	0x3e89dd96	0.2692687
85	0xbdd5f0fe	-0.10446356
86	0x3e538976	0.20657906
87	0x3d85f8f0	0.06541622
88	0x3e04cbba	0.1296834
89	0x3e08e8bd	0.13370033
90	0x3b19105c	0.0023355698
91	0xbd465225	-0.048418183
92	0x3d0d9f38	0.03457567
93	0xbd83b786	-0.06431489
94	0x3dcf03a6	0.10108118
95	0xbe02232b	-0.12708728
96	0xbe40d88e	-0.18832609
97	0xbdd4dad7	-0.10393303
98	0xbe02f02e	-0.12786934
99	0x3e16b426	0.14717159
100	0x3e33ef3a	0.17571726
101	0x3d846738	0.06465
102	0xbd9594a7	-0.07303744
103	0x3dbfac1b	0.093589984
104	0xbe1cb345	-0.15302761
105	0xbcf78811	-0.030216249
106	0xbd896a5d	-0.0670974
107	0x3d64634d	0.055758763
108	0x3e442786	0.19155702
109	0xbdce4ad2	-0.100728646
110	0x3dc5d6d7	0.09660118
111	0x3cf46887	0.029834999
112	0xbdff46d2	-0.1246468
113	0x3d6b6af1	0.057475034
114	0xbe036414	-0.12831146
115	0x3d6a3ec5	0.057188768
116	0x3e332ee6	0.17498359
117	0xbe32ee30	-0.17473674
118	0xbe3229b5	-0.17398722
119	0xbc981abd	-0.018567437
120	0x3d75c55e	0.060002677
121	0xbd98c45c	-0.074593276
122	0x3d3006c5	0.042975206
123	0x3e364b38	0.17802131
124	0x3d9f6112	0.077821866
125	0xbcaf8b8b	-0.021428844
126	0x3e094942	0.13406852
127	0x3d0b9bde	0.034084193
128	0xbde4d114	-0.11172691
129	0xbcb48ba8	-0.02203925
130	0x3cfe26f2	0.03102443
131	0x3d088e6d	0.033338953
132	0x3e5ce379	0.21571149
133	0xbb2c66c9	-0.0026306382
134	0x3d6eef66	0.058333777
135	0x3c9e1c58	0.019300625
136	0xbde003e2	-0.109382406
137	0xbd23bfa4	-0.039977685
138	0xbd0fa55c	-0.03506981
139	0x3d4a9e50	0.049467385
140	0x3e442c16	0.19157442
141	0xbdeb20fd	-0.114809014
142	0xbc69d101	-0.014271022
143	0xbd9295be	-0.07157467
144	0x3e4045ca	0.18776622
145	0x3da1e8ea	0.07905753
146	0xbbde3d64	-0.0067822207
147	0xbde24ae5	-0.11049441
148	0x3e020c95	0.12700112
149	0xbdacc5c5	-0.08436159
150	0xbcdf22ab	-0.02723821
151	0x3cd944ee	0.026522126
152	0x3da5286f	0.08064353
153	0xbcec9f96	-0.02888469
154	0xbdcd3c5c	-0.10021278
155	0xbdcdbfea	-0.1004637
156	0xbb8ef9ac	-0.0043632593
157	0xbd3651cc	-0.0445116
158	0xbdd6bbc9	-0.10485036
159	0x3c1899f2	0.009314047
160	0xbda45fea	-0.08026107
161	0xbd570961	-0.05249918
162	0x3c682052	0.014167862
163	0xbde8367b	-0.11338516
164	0xbdd85190	-0.10562432
165	0xbe04d314	-0.12971145
166	0xbddd468a	-0.1080447
167	0xbe434df4	-0.19072706
168	0x3d0ebf55	0.034850437
169	0x3a5fe95f	0.000854155
170	0xbd9eded9	-0.077573486
171	0x3e5ad883	0.21371655
172	0x3d5ef613	0.054433893
173	0x3ddae79a	0.10688706
174	0x3d853ff5	0.065063395
175	0x3e8b3168	0.2718613
176	0x3dc665c7	0.09687381
177	0xbcff6c56	-0.031179588
178	0x3da9f207	0.08298116
179	0x3d8288f9	0.06373782
180	0xbc9149c4	-0.01773537
181	0x3eaa7750	0.33294153
182	0x3de1d132	0.11026229
183	0x3c9dc78d	0.019260192
184	0xbe216c87	-0.15764056
185	0xbd1b798f	-0.037957724
186	0xbdafefbf	-0.0859065
187	0x3de85ecc	0.11346206
188	0x3e585239	0.21125115
189	0x3e96c89c	0.29449928
190	0xbc15a402	-0.009133341
191	0x3d203586	0.039113544
192	0xbdd00c08	-0.10158545
193	0x3c866fb8	0.016410694
194	0x3e189d65	0.14903791
195	0x3e232238	0.15931022
196	0xbc30d673	-0.010793316
197	0x3dfe46b6	0.12415831
198	0x3d6cd426	0.057819508
199	0x3e5ec58f	0.2175505
200	0x3da3bbae	0.079947814
201	0x3dd2c793	0.10291972
202	0xbe19655a	-0.14980069
203	0x3cb0b77f	0.021571873
204	0x3d025493	0.031818938
205	0xbd1a7a62	-0.03771437
206	0x3cafde7b	0.021468392
207	0x3df88d9b	0.12136384
208	0xbe27aa2d	-0.1637351
209	0xbc2aa068	-0.01041422
210	0xbd440faa	-0.0478665
211	0x3cb0147c	0.021494143
212	0x3ea16cfd	0.31528464
213	0xbd630c69	-0.055431757
214	0xbe15ddb4	-0.14635354
215	0x3e08c2b0	0.13355517
216	0x3d81d632	0.06339683
217	0xbdd5a2db	-0.10431453
218	0x3e27310e	0.16327307
219	0xbdfe0631	-0.12403525
220	0xbdca5a7b	-0.09880539
221	0x3d29b703	0.0414343
222	0x3ddcac41	0.10775042
223	0xbde0a484	-0.10968879
224	0x3dc74264	0.0972946
225	0xbe00c762	-0.12576059
226	0x3e20ffea	0.15722623
227	0xbd1a3df4	-0.03765674
228	0xbdeeb3fe	-0.116554245
229	0xbd8981e8	-0.06714231
230	0x3e0a4924	0.13504463
231	0xbdbdb81e	-0.09263633
232	0x3df8ccd0	0.1214844
233	0x3e0a61c2	0.13513854
234	0x3cd7308e	0.02626827
235	0x3d4d21b6	0.050080977
236	0xbda1dff1	-0.079040416
237	0xbd8c1372	-0.068396464
238	0x3e2189e6	0.1577526
239	0xbdebde02	-0.11516954
240	0x3e292838	0.16519248
241	0x3d8b0aa2	0.067891374
242	0x3df882cb	0.12134322
243	0xbd9350af	-0.071931235
244	0xbce4712c	-0.027885996
245	0xbd0b2527	-0.033970978
246	0xbc07ec57	-0.008296094
247	0xbd9d06fc	-0.07667348
248	0x3db0d605	0.08634571
249	0x3db68d7e	0.08913706
250	0x3d6747d8	0.056465
251	0xbe251422	-0.16120961
252	0xbe07a80a	-0.13247696
253	0x3d1cbe26	0.038267277
254	0x3e1a923c	0.15094846
255	0xbdd0cd25	-0.10195378

fc1.bias f4 [400]
0	0x3b9520f4	0.0045510475
1	0x3d22594a	0.039635934
2	0xbc6af7f5	-0.014341344
3	0x3d4f60ef	0.050629552
4	0x3d668437	0.056278434
5	0x3d9acacb	0.07558211
6	0x3cdb360c	0.02675917
7	0x3bf59136	0.007494117
8	0x3c858d19	0.016302632
9	0x3b196c6a	0.0023410567
10	0x3d021cce	0.03176575
11	0x3cd77093	0.026298797
12	0x3d487126	0.04893603
13	0x3cdc1271	0.026864262
14	0xbce4a24d	-0.027909422
15	0x3d9bfdd3	0.076167725
16	0x3ce16585	0.027514229
17	0x3cda76b6	0.026667934
18	0xbda16d2b	-0.0788215
19	0x3d98d01e	0.0746157
20	0x3db9804c	0.09057674
21	0x3d7f67bb	0.062354784
22	0x3d5300d2	0.051514454
23	0xbcd0c4d0	-0.025484473
24	0xbd3ab85a	-0.045585968
25	0x3ccf0296	0.025269788
26	0x3dd3a25c	0.10333702
27	0x3d935f80	0.071959496
28	0x3ca38d87	0.019964946
29	0x3d274423	0.040836465
30	0x3d562feb	0.052291792
31	0x3cc57abf	0.024106381
32	0x3daf31f6	0.08554451
33	0xbc01b6c7	-0.007917113
34	0xbc6e2f2d	-0.014537615
35	0xbbcf9157	-0.0063344645
36	0xbd2144d6	-0.039372288
37	0x3c959643	0.018260127
38	0x3d696deb	0.05698959
39	0xbcbb096e	-0.022831645
40	0xbd705c1a	-0.058681585
41	0x3d147e58	0.036253303
42	0x3cc21fb5	0.02369676
43	0x3c36b2e1	0.0111510465
44	0xba8d1a58	-0.0010765297
45	0x3db8c4c9	0.09021909
46	0x3b35f91c	0.002776689
47	0x3d8df0d1	0.06930698
48	0x3dbab59b	0.0911667
49	0x3d3fdae1	0.0468396
50	0x3d1112b7	0.03541824
51	0x3d8ebea7	0.06969958
52	0x3cc58f8e	0.024116304
53	0xbbd5821a	-0.0065157535
54	0xbca4bcff	-0.020109652
55	0x3dbf342c	0.09336123
56	0xbd2f3b14	-0.04278095
57	0x3d779c59	0.06045184
58	0x3db0957f	0.08622264
59	0x3de17ea2	0.110104814
60	0xbc01ddc0	-0.0079264045
61	0xba2fcb70	-0.0006706035
62	0x3d00c997	0.03144225
63	0x3d68e460	0.05685842
64	0x3b4fb8e3	0.0031695894
65	0x3c0d671b	0.008630539
66	0x3d237798	0.039908975
67	0xbc7cc5f1	-0.015428052
68	0x3d42c0b8	0.047547072
69	0x3d311bf9	0.043239567
70	0xbd035cd0	-0.032070935
71	0x3cdf30b1	0.027244898
72	0x3bcb25df	0.006199583
73	0xbcfd4179	-0.030915009
74	0xbd164664	-0.036688223
75	0xbcaa584e	-0.02079406
76	0x3db04dbe	0.08608578
77	0x3d60c97e	0.054879658
78	0x3caf85a7	0.021426035
79	0x3d15f789	0.03661302
80	0x3dc0e6f6	0.09419052
81	0x3d0ac1ed	0.03387635
82	0xbd347957	-0.04406103
83	0x3d80aba9	0.062827416
84	0xbd0b61c1	-0.034028772
85	0x3c1b40be	0.009475885
86	0x3d9e17ef	0.07719409
87	0x3d062365	0.0327486
88	0x3d497d90	0.04919201
89	0x3b0b0550	0.0021212883
90	0x3c0d6ac4	0.008631412
91	0x3b9505ab	0.004547795
92	0x3c1a2723	0.009408745
93	0x3d79ae45	0.060957212
94	0xbb747973	-0.0037303835
95	0x3d6a95fe	0.05727195
96	0x3ac26860	0.0014832132
97	0x3be590df	0.0070057954
98	0xbd11c41f	-0.035587426
99	0x3d57c897	0.05268153
100	0x3cf3d965	0.029766748
101	0x3c91264a	0.017718453
102	0x3c85a466	0.016313743
103	0xbcc2ae52	-0.023764763
104	0x3cf66ace	0.030080225
105	0x3d83ddaf	0.06438767
106	0x3d7135e6	0.058889292
107	0x3d4b0b69	0.04957143
108	0x3d4d19fa	0.0500736
109	0x3d8c4e22	0.0685084
110	0xbd5ff6ea	-0.054678835
111	0x3ce73840	0.028225064
112	0x3dc58201	0.09643937
113	0x3e0fa025	0.14025934
114	0xbd3e02d3	-0.046389412
115	0x3c870e6a	0.016486365
116	0x3cbe5a27	0.023236347
117	0x3d6ee2c2	0.05832172
118	0xbd971208	-0.07376486
119	0x3cd7743a	0.026300538
120	0x3c903e20	0.017607749
121	0xbc8a20a5	-0.01686127
122	0x3cd19d3d	0.025587672
123	0x38a8b36f	8.0442864e-05
124	0x3e1aa0dc	0.15100425
125	0x3be81b7a	0.0070833536
126	0x3deb2960	0.11482501
127	0xbb45f18e	-0.0030203792
128	0x3d2e54a8	0.042561203
129	0x3ddea816	0.108719036
130	0xbb8b5efa	-0.0042532654
131	0xbcf51283	-0.029916054
132	0x3c555c78	0.013022535
133	0x3c9b5d2a	0.018965323
134	0x3d99e926	0.07515173
135	0x3be0cc26	0.006860274
136	0xbd85a441	-0.065254696
137	0x3b532fc9	0.0032224527
138	0x3d1ee0e1	0.03878868
139	0x3cd35cc0	0.025801063
140	0x3d5c1c80	0.053738117
141	0x3cbf3aae	0.02334341
142	0x3bfff1cf	0.0078108083
143	0x3c824353	0.015901243
144	0x3d64f9d7	0.05590233
145	0xbb9640eb	-0.0045853755
146	0x3da840ff	0.08215522
147	0x3c26caa0	0.0101801455
148	0x3d0109e2	0.031503566
149	0x3d488690	0.048956454
150	0xbd6ecec8	-0.05830267
151	0xbb4d7591	-0.0031350593
152	0xbd0a8976	-0.0338225
153	0x3d7c8a5d	0.06165539
154	0x3d023369	0.03178731
155	0x3d860051	0.06543029
156	0x3bc05175	0.0058690854
157	0x3d8baf6c	0.068205684
158	0x3d72b32a	0.059252895
159	0x3bf64f0f	0.0075167487
160	0x3d4a398f	0.0493713
161	0x3c7750f6	0.015094986
162	0xbc5ac6f2	-0.013353096
163	0x3bb152a0	0.005411461
164	0x3b8f5e1e	0.0043752333
165	0xbc7bc319	-0.015366339
166	0x3cbdfc3a	0.02319156
167	0x3d3ed398	0.04658851
168	0x3d1e6d1c	0.038678274
169	0xbbac8657	-0.005265038
170	0x3cc1312b	0.023583015
171	0x3c889e5b	0.016677072
172	0x3dd00bdb	0.10158511
173	0x3b3f4a59	0.0029188602
174	0xbd007b19	-0.031367395
175	0x3d9da7fe	0.076980576
176	0x3d9e9962	0.07744099
177	0xbd800be5	-0.06252269
178	0x3d533d9b	0.051572423
179	0x3cf03e8d	0.029326702
180	0xbc8e9359	-0.017404245
181	0x3e1954b8	0.14973724
182	0x3d86e9c5	0.06587557
183	0xbcfe5d9e	-0.0310505
184	0xbc9ffca3	-0.019529646
185	0x3b498882	0.003075153
186	0x3d766d14	0.06016262
187	0x3d0205e3	0.031743895
188	0xbd3a239a	-0.04544411
189	0x3d6be4ce	0.057591252
190	0x3d4eaace	0.05045586
191	0xbce6e2c8	-0.02818431
192	0x3d1872c0	0.03721881
193	0xbb7fe499	-0.0039046167
194	0x395a6a40	0.00020829681
195	0x3d20f4f4	0.039296106
196	0x3b9a2bcd	0.0047049285
197	0xbcb85310	-0.022500545
198	0xbc3ac97c	-0.011400577
199	0x3d853597	0.06504362
200	0xbd1565b9	-0.036473963
201	0x3cb99216	0.022652667
202	0x3d48fa86	0.049067043
203	0xba11c5e7	-0.0005560801
204	0xbd655866	-0.055992506
205	0x3d5452ef	0.051836904
206	0xbc996ebf	-0.018729566
207	0xbcecf6e6	-0.028926324
208	0x3c94cde5	0.018164584
209	0x3c41cd7c	0.011828776
210	0xbc8ece72	-0.017432425
211	0xbc5b009b	-0.013366844
212	0x3d6faac7	0.058512475
213	0x3c97764b	0.018489024
214	0x3ad3ab27	0.001614903
215	0x3c2a9f6d	0.010413987
216	0x3d5c9e5b	0.053861957
217	0x3d200fe3	0.03907765
218	0x3b537c47	0.003227012
219	0x3cd55605	0.026041994
220	0x3d921aed	0.07134042
221	0xbd0a6db5	-0.03379603
222	0x3d5da0cc	0.054108426
223	0xbb953002	-0.004552842
224	0x3dd019ba	0.10161157
225	0xbd17e5f6	-0.037084542
226	0x3cc92ae9	0.024556594
227	0x3dc0d992	0.09416498
228	0x3bfe3920	0.0077582747
229	0x3d26879e	0.04065668
230	0x3d1e9080	0.038712025
231	0xbc8871f6	-0.016655903
232	0x3d39a22b	0.04532067
233	0x3d8e4373	0.06946459
234	0x3d96ec88	0.073693335
235	0xb9d1359e	-0.00039903534
236	0xbcf32e4e	-0.029685166
237	0x3c821fcd	0.015884304
238	0x3d1e3fbc	0.038635
239	0x3c84ecd9	0.016226219
240	0x3bafe1b4	0.005367482
241	0x3c8a0ddc	0.016852312
242	0x3b2aedea	0.002608175
243	0x3c58aa61	0.013224215
244	0x3cd2b0b8	0.025719032
245	0x3dbc34f2	0.09189786
246	0xbc2d4ecb	-0.010577868
247	0xbd22318b	-0.03959803
248	0xbca42c32	-0.020040605
249	0xbd8a96e6	-0.06767063
250	0x3bceaea0	0.006307438
251	0xbbbab1e9	-0.005697478
252	0x3c1ee723	0.009698662
253	0x3cf01c9b	0.029310515
254	0x3da913db	0.0825574
255	0x3d9783b1	0.07398165

fc2.weight f4 [300, 400]
0	0x3cd2bc68	0.025724605
1	0x3e344f8f	0.17608474
2	0x3d4943e4	0.04913701
3	0xbc8cced7	-0.017188473
4	0xbc081952	-0.008306818
5	0xbdf45445	-0.11930136
6	0x3c72abdb	0.014811481
7	0x3c160244	0.009155814
8	0xbd843693	-0.06455722
9	0x3c70dfa0	0.014701754
10	0x3dc28ab6	0.09499113
11	0xbd8cb36b	-0.06870159
12	0x3d9b34f4	0.075784594
13	0x3d875d3a	0.066095784
14	0xbd93a097	-0.072083645
15	0xbd7fc1e4	-0.062440768
16	0x3dbc1578	0.09183782
17	0xbd82ea11	-0.06392301
18	0x3d247fb6	0.040160857
19	0x3dde4061	0.10852123
20	0xbe038a5c	-0.12845749
21	0xbc638353	-0.013886291
22	0xbc24f357	-0.010067782
23	0x3d903268	0.07040864
24	0xbbc33917	-0.0059577334
25	0x3d151681	0.036398415
26	0xbd539836	-0.05165883
27	0xbdf3e923	-0.11909702
28	0x3d010530	0.031499088
29	0xbd9dc9e5	-0.07704524
30	0x3e094a23	0.13407187
31	0xbd88ab0f	-0.06673252
32	0x3e138077	0.14404474
33	0x3d9982ac	0.07495627
34	0xbc18b782	-0.009321095
35	0x3c34ddd3	0.011039215
36	0xbd9ca810	-0.07649243
37	0x3db4055d	0.087900855
38	0xbded614a	-0.11590822
39	0x3d848edc	0.06472561
40	0x3d04f579	0.032460663
41	0x3d44d6dc	0.04805647
42	0x3d4557a7	0.048179295
43	0x3d02e35c	0.031955108
44	0xbd03285f	-0.032020923
45	0x3d80fb0a	0.06297882
46	0xbdb7cd5d	-0.08974717
47	0x3d11e3ca	0.035617627
48	0x3c1cd5db	0.0095724715
49	0x3e01b092	0.12665012
50	0x3d341491	0.043964926
51	0x3b839b15	0.00401629
52	0xbd105219	-0.035234544
53	0x3c07d873	0.008291352
54	0x3dc7dab2	0.0975851
55	0x3dbecde5	0.09316615
56	0xbc2dd8ec	-0.0106108
57	0xbdc7ef5b	-0.0976245
58	0x3e14a103	0.14514546
59	0x3d1bd321	0.038043145
60	0x3d457e31	0.04821605
61	0x3dafe322	0.08588244
62	0xbd9600f5	-0.07324401
63	0xbbdb65a1	-0.0066954647
64	0x3d993f1e	0.07482742
65	0x3e1920f3	0.14953975
66	0xbd8b2965	-0.06795005
67	0x3d8e9460	0.06961894
68	0x3dbbfb81	0.0917883
69	0x3c11d9d1	0.008902029
70	0x3dd38428	0.10327941
71	0xbdeb7093	-0.11496081
72	0xbdf2483f	-0.11830186
73	0x3c1f1fa3	0.009712133
74	0x3de0a4c7	0.10968929
75	0xbd927278	-0.071507394
76	0xbd111e40	-0.03542924
77	0xbca332d0	-0.01992169
78	0xbd8d31ab	-0.06894239
79	0xbd05e1f1	-0.032686178
80	0xbd709aed	-0.0587415
81	0x3d4b521f	0.049638864
82	0x3d9de424	0.0770953
83	0x3ce675a1	0.028132262
84	0x3e5506db	0.20803396
85	0x3cd053ed	0.025430644
86	0x3d7a5a3e	0.061121218
87	0x3e232a7f	0.1593418
88	0x3d5130bf	0.05107188
89	0x3d89226a	0.06696017
90	0x3dccdc5c	0.10002968
91	0xbdbb1978	-0.09135717
92	0x3d7c72c4	0.061632887
93	0xbbfcaef7	-0.007711287
94	0xbd61e97b	-0.055154305
95	0xbd8bb7de	-0.06822179
96	0x3dcd28e2	0.100175634
97	0x3c871913	0.016491449
98	0x3e061bf1	0.13096596
99	0x3c89ad89	0.01680638
100	0x3a1ce810	0.0005985508
101	0xbdaaff5e	-0.08349489
102	0x3db6c607	0.089244895
103	0xbd860cd9	-0.06545419
104	0x3ddadc29	0.106865235
105	0xbd02b2fb	-0.03190897
106	0x3d970c14	0.073753506
107	0xbc8a3e8d	-0.01687553
108	0x3d936e3a	0.071987584
109	0x3d223600	0.03960228
110	0x3c5c56a6	0.013448393
111	0xbe01afc3	-0.12664704
112	0xbd95935f	-0.073034994
113	0x3ca8f73e	0.020625707
114	0x3dcc1500	0.09964943
115	0x3da1ea39	0.079060026
116	0xbc513c60	-0.012770742
117	0xbc8ba018	-0.017044112
118	0x3e174d4c	0.1477558
119	0x3d11b0a2	0.03556884
120	0x3da3969e	0.07987712
121	0xbe0571e8	-0.13031733
122	0xbdbfdc75	-0.09368221
123	0xbdefc751	-0.117079385
124	0x3da0d727	0.07853537
125	0x3db3c059	0.08776922
126	0x3d46d41f	0.04854214
127	0x3e36d754	0.17855579
128	0xbe184da0	-0.14873362
129	0xbe3affd6	-0.18261656
130	0xbb13387b	-0.0022464085
131	0x3e1abd0f	0.15111183
132	0xbd2d014e	-0.042237572
133	0x3d7d701d	0.061874498
134	0x3dfa3426	0.12216978
135	0xbd1d366f	-0.03838199
136	0xbd625508	-0.055256873
137	0xbd93aa49	-0.07210214
138	0x3da18e0a	0.0788842
139	0x3df1a6b2	0.11799373
140	0xba5a1f5a	-0.0008320712
141	0xbd9972da	-0.07492609
142	0x3d2d8faf	0.042373355
143	0xbcf61fbd	-0.03004443
144	0x3d4fc24d	0.05072241
145	0x3c2b6425	0.010460888
146	0x3cacbbf2	0.021085713
147	0xbd50b91a	-0.050957777
148	0xbb6b6cf3	-0.0035923093
149	0xbcdce289	-0.02696349
150	0x3d0840b1	0.03326482
151	0xbdb9f91c	-0.09080717
152	0xbd1c7b8a	-0.038203754
153	0x3caa34e7	0.020777179
154	0xbc2fd4e3	-0.0107319085
155	0x3dbbfa4c	0.091786
156	0xbd64c753	-0.055854153
157	0x3d806eb6	0.062711164
158	0x3b215870	0.0024619363
159	0xbd147497	-0.036244
160	0xbd47af39	-0.04875109
161	0x3d88de9a	0.06683083
162	0x3d9f9b10	0.07793248
163	0xbd337a9d	-0.043818105
164	0xbdc42694	-0.09577671
165	0x3db52e96	0.08846776
166	0x3e27aa47	0.1637355
167	0x3d260242	0.040529497
168	0xbd3b293c	-0.04569362
169	0x3d7257b2	0.059165664
170	0x3ca77bee	0.020444836
171	0xbd07197d	-0.032983292
172	0x3d90e211	0.07074369
173	0xbd46fdc3	-0.04858185
174	0xbd8b2b7f	-0.067954056
175	0x3c908e29	0.017645912
176	0xbced7ca9	-0.028990107
177	0xbdfcc5f2	-0.123424426
178	0x3d1b022c	0.037843868
179	0xbd0fdd25	-0.03512301
180	0xbd9f5cc1	-0.07781363
181	0x3ce781dd	0.028260166
182	0x3d6ae0dd	0.057343353
183	0xbc8d65a3	-0.017260378
184	0xbdc42549	-0.09577424
185	0x3b9691d4	0.004595021
186	0x3cf64af8	0.030065045
187	0xbc3e2b05	-0.011606936
188	0x3e06f336	0.13178715
189	0xbcfe3689	-0.031031864
190	0xbc43986e	-0.011938198
191	0x3b9302df	0.0044864262
192	0x3d0ff2ed	0.03514378
193	0xbd806492	-0.06269182
194	0xbd1f6940	-0.038918734
195	0x3dd578ab	0.10423406
196	0xbdf23baa	-0.11827786
197	0x3d7e6cfb	0.06211565
198	0x3ca4c2d5	0.020112434
199	0xbdee37e2	-0.116317526
200	0x3d867f30	0.06567228
201	0xbdf89a8d	-0.12138853
202	0x3db56da5	0.08858804
203	0x3c10d736	0.008840373
204	0x3e68030f	0.22657417
205	0xbdca2a01	-0.09871293
206	0x3d7b6267	0.06137314
207	0x3c6f0a79	0.014589899
208	0xbd8bcbb1	-0.068259604
209	0x3da55c76	0.08074276
210	0x3dc4ceec	0.0960978
211	0x3c76ab5f	0.0150555065
212	0xbc1f1af2	-0.009711014
213	0xbd3672c7	-0.044543054
214	0x3d544477	0.051823106
215	0x3daf78bd	0.08567951
216	0xbd20c012	-0.039245673
217	0xbc6d8b50	-0.014498547
218	0x3e0340c7	0.1281768
219	0x3da61d75	0.08111087
220	0xbd4991ea	-0.04921142
221	0xbd6cf9a4	-0.057855263
222	0x3d75888f	0.059944686
223	0xbe2292c5	-0.158763
224	0xbd96163f	-0.07328462
225	0xbc3c7c24	-0.011504207
226	0xbd2f282f	-0.04276293
227	0xbc8e33e6	-0.017358731
228	0x3de2110c	0.11038408
229	0x3dce1952	0.10063423
230	0xbd8d5cb5	-0.06902448
231	0x3d8fbc64	0.070183545
232	0x3d9959e0	0.074878454
233	0xbd1ad629	-0.037801895
234	0x3cf71b78	0.030164465
235	0xbd6bf99e	-0.0576111
236	0xbaf6d2cb	-0.0018831132
237	0xbd1f668f	-0.038916167
238	0xbd7f256a	-0.06229154
239	0xbd7086a9	-0.058722172
240	0xbd878c80	-0.06618595
241	0x3d32c69a	0.043646432
242	0x3ca17965	0.019711206
243	0x3d9a2acf	0.07527696
244	0xbd966824	-0.07344082
245	0xbdba8da5	-0.09109048
246	0x3e795678	0.24349391
247	0x3d6b7d40	0.057492495
248	0x3de582c3	0.112065814
249	0xbd78d81e	-0.06075298
250	0x3e18379c	0.14864963
251	0xbd04929a	-0.032366373
252	0xbd586352	-0.052829094
253	0x3cdd5ced	0.02702185
254	0x3cd6c162	0.026215259
255	0x3d639654	0.055563286

fc2.bias f4 [300]
0	0x3c8aefe6	0.016960096
1	0x3c025411	0.007954613
2	0x3c675d17	0.014121315
3	0x3ccbe706	0.024890434
4	0x3cb95ba6	0.02262671
5	0x3ce038ac	0.027370773
6	0x3d20e17c	0.03927754
7	0xbc512908	-0.01276613
8	0xbc83cc8b	-0.016088745
9	0xbbfbf13d	-0.00768867
10	0x3c0bd6d4	0.008535106
11	0xbcc75da4	-0.024336644
12	0x3c90932a	0.017648298
13	0x3cbd9f0f	0.023147134
14	0x3ce1422c	0.027497374
15	0x3ad40822	0.001617674
16	0x3c811b1a	0.015759993
17	0xba362b71	-0.00069492223
18	0x3d168cc8	0.036755353
19	0x3b020f9b	0.0019845727
20	0xbc1f3e11	-0.009719388
21	0x3cdeee5d	0.02721327
22	0x3b65077f	0.0034947095
23	0x3cc277b2	0.023738716
24	0xb9761847	-0.00023469432
25	0xbb171b47	-0.002305703
26	0x3c05950a	0.008153209
27	0x3baed944	0.0053359587
28	0x3d0d42c0	0.034487486
29	0xbca0c794	-0.019626416
30	0xbaa4f99d	-0.0012586598
31	0x3ced0967	0.028935147
32	0x3cb19b7a	0.021680582
33	0x3cdc6892	0.026905332
34	0xb98a4975	-0.0002637614
35	0x3c8da0ee	0.017288651
36	0x3ada1ea4	0.0016641212
37	0x3ce32f94	0.027732648
38	0x3cf0ccb5	0.029394487
39	0x3ca38041	0.019958617
40	0xbc5c9351	-0.013462857
41	0x3d1c7d2a	0.038205303
42	0x3cfe8806	0.03107072
43	0xbbdf01f0	-0.006805651
44	0x3c36ce70	0.011157617
45	0x3c938dd0	0.018011957
46	0x3c992056	0.018692177
47	0xbc72983d	-0.014806804
48	0x3c9ebf63	0.01937837
49	0x3d08afd8	0.033370823
50	0x3ad0a9c8	0.0015919739
51	0x3c4d87cc	0.0125445835
52	0xbae24d66	-0.0017265498
53	0x3c0019da	0.0078186635
54	0x3c2d6413	0.010582942
55	0x3d0c75b6	0.034291945
56	0x3a4c657d	0.00077971054
57	0x3b8f53a4	0.0043739844
58	0x3c67b45e	0.014142124
59	0x3c85aad3	0.016316807
60	0x3cfa0291	0.030518802
61	0xbab89f68	-0.0014085593
62	0x3d4cc922	0.049996503
63	0x3d360203	0.044435512
64	0xbb912a9a	-0.0044301273
65	0x3ccc39db	0.024929931
66	0x3ccbb404	0.024866112
67	0xbcf483f6	-0.02984808
68	0x3cd6cbf9	0.026220309
69	0x3ca729ca	0.020405669
70	0x3ce2dcfc	0.027693264
71	0x3b0901c9	0.0020905605
72	0x3c7e2465	0.015511607
73	0x3c88503e	0.016639825
74	0xbc8ae1ff	-0.016953466
75	0x3cc322d4	0.023820318
76	0x3cb0cd8b	0.021582386
77	0x3d0cfe5c	0.034422264
78	0x3d48985a	0.04897342
79	0x3c857756	0.016292255
80	0x3cbfa72c	0.023395143
81	0x3a83d860	0.0010058992
82	0x3d679a28	0.0565435
83	0x3c978cd4	0.01849977
84	0x3cde8518	0.027163073
85	0xbad36b4a	-0.0016129997
86	0x3c831446	0.016000878
87	0x3bc13e0b	0.0058972887
88	0x3c7fa24d	0.01560266
89	0x3d04fb5d	0.03246628
90	0x3ccaa8d7	0.024738712
91	0xbb4f2ce8	-0.003161246
92	0x3cfa4cd0	0.030554205
93	0x3ccf0184	0.025269277
94	0xbbb5e6bd	-0.005551188
95	0x3cd4fe01	0.026000025
96	0x3c3803b7	0.011231354
97	0x3c1df9c1	0.0096420655
98	0xbc082dcb	-0.008311699
99	0xbbbde121	-0.0057946597
100	0x3c9b31dc	0.018944673
101	0x3d0a1448	0.033710748
102	0xbcc4cead	-0.024024332
103	0x3c497aae	0.0122973155
104	0x3ac92a3e	0.0015347672
105	0x3cecc23e	0.028901216
106	0x3acf4b06	0.0015815205
107	0x3c344bb4	0.011004377
108	0xbbd947dd	-0.006630881
109	0x3d177f9d	0.036986936
110	0x3bcf45e3	0.00632547
111	0xbb7b8d71	-0.0038383866
112	0x3ce95b4a	0.028485913
113	0xbbe13f4f	-0.006874002
114	0x3c64492d	0.013933462
115	0x3a568eb0	0.0008184714
116	0xbb9683b9	-0.0045933393
117	0x3ca2c070	0.019867152
118	0x3c930fbe	0.017951842
119	0x3cd3e011	0.02586368
120	0x3bf24f79	0.007394728
121	0x3c8033c8	0.015649691
122	0x3d06b879	0.03289077
123	0x3d14a7e2	0.036292918
124	0xbb83b17c	-0.0040189605
125	0x3ce908d6	0.028446596
126	0x3d4e2906	0.05033209
127	0x3cdcbf51	0.026946696
128	0x3ce32957	0.027729673
129	0x3cbf71b9	0.023369657
130	0x3d1da8ff	0.038491245
131	0xbc4e650d	-0.012597335
132	0x3c36489e	0.011125712
133	0x3d086e84	0.03330852
134	0x3cf4338d	0.029809738
135	0x3d675dbb	0.056485873
136	0x3d014842	0.03156305
137	0x3d530717	0.051520433
138	0x3cf49fe9	0.029861407
139	0x3c7055b2	0.014668869
140	0x3b930a44	0.0044873077
141	0x3b344916	0.0027509383
142	0x3cabcd7d	0.020972008
143	0x3d02d84e	0.031944565
144	0xbbcaf69d	-0.0061939494
145	0x3c1fffa6	0.009765541
146	0xbca3fafe	-0.020017143
147	0xbbe9cef1	-0.007135265
148	0x3d01c8ec	0.031685755
149	0x3d03f097	0.032211866
150	0x3d24ccbf	0.040234324
151	0x3cb562d0	0.022141844
152	0x3d081fd4	0.03323348
153	0x3c394bff	0.011309623
154	0x3d0d9d45	0.034573812
155	0x3c8f1497	0.017465873
156	0x3b9b10b2	0.004732215
157	0x3d01b81a	0.031669714
158	0x3c1c645b	0.009545411
159	0x3d60547d	0.054768074
160	0x3ca8212f	0.020523636
161	0x3ce93fed	0.028472865
162	0x3ce703e1	0.028200092
163	0x3c6a81a1	0.0143131325
164	0x3d5d5bb4	0.054042533
165	0x3c76b3af	0.015057488
166	0x3d1d1cf3	0.038357686
167	0x3ce7dfc4	0.028304942
168	0xbbb56b1e	-0.005536451
169	0x3c923988	0.017849699
170	0x3c4522fa	0.012032265
171	0x3d0713f9	0.03297803
172	0x3cd10d06	0.025518905
173	0x3cf11ad5	0.02943174
174	0x3cfb8462	0.030702773
175	0x3c704663	0.014665219
176	0x3b7ca835	0.0038552408
177	0x3cc6a70a	0.024249572
178	0x3bbe4e0e	0.0058076447
179	0x3c946e25	0.018118927
180	0x3c382747	0.011239833
181	0xbbf227b6	-0.007389988
182	0x3cbcd8ea	0.023052651
183	0x3ca246bd	0.019809121
184	0x3cbc699a	0.022999573
185	0x3ccc92b9	0.024972307
186	0x3cd46f48	0.02593197
187	0x3c53b609	0.0129218185
188	0x3cd3dc27	0.025861813
189	0x3cee3c80	0.029081583
190	0x3d055b7b	0.032557946
191	0x3d1cf399	0.03831825
192	0x3ca6687e	0.020313498
193	0x3c6d86c6	0.0144974645
194	0xbd05b31b	-0.03264151
195	0x3c7e098e	0.015505208
196	0x3b0c325f	0.0021392328
197	0x3d371540	0.044698
198	0x3a88d236	0.0010438624
199	0x3cf9f232	0.030510996
200	0xbad6f333	-0.0016399383
201	0x3cd9404d	0.026519919
202	0xbb06560b	-0.0020498063
203	0x3ce86334	0.028367616
204	0x3cff454e	0.031160977
205	0x3d283406	0.04106524
206	0x3d087e6a	0.033323683
207	0x3c6c878d	0.014436615
208	0x3cb9e439	0.022691833
209	0x3cb9437f	0.022615192
210	0xbb961284	-0.004579844
211	0x3bbdcfe1	0.0057926034
212	0x3cc9e4c2	0.024645213
213	0x3cd65e04	0.026167877
214	0x3cd8066a	0.026370246
215	0x3bbf6914	0.0058413837
216	0x3cec977a	0.028880823
217	0x3ce87f4e	0.028381016
218	0x3bb62491	0.0055585583
219	0x3d21f825	0.03954329
220	0x3cf069ee	0.029347386
221	0x3caef268	0.021355823
222	0x3cbe019f	0.023194132
223	0xbc4e0cf4	-0.01257633
224	0x3c96c697	0.018405242
225	0x3be2ac0d	0.0069174827
226	0x3cc157ad	0.023601377
227	0xbc85d269	-0.016335683
228	0x3d06a337	0.032870498
229	0x3c56a980	0.013101935
230	0x3d097723	0.033560883
231	0xbb8b216a	-0.0042459266
232	0x3d0089e1	0.03138149
233	0x3be33305	0.0069335722
234	0x3ce2eac3	0.027699834
235	0x3b95ffdb	0.0045776195
236	0x3c905d85	0.017622719
237	0x3cf5492f	0.029942123
238	0x3b8f95e1	0.0043818806
239	0x3ca21478	0.01978515
240	0x3c9d7dad	0.019224966
241	0x3ce36dcc	0.027762316
242	0x3ca18c87	0.019720329
243	0x3bd3ea0f	0.006467111
244	0x3c3f1fc9	0.011665293
245	0x3c80a028	0.015701368
246	0x3d00a9f4	0.03141208
247	0x3ce06bf2	0.027395222
248	0x3b455bba	0.0030114488
249	0x3c1021c3	0.008797112
250	0x3c8297c1	0.015941503
251	0xbba0f160	-0.0049115866
252	0xbca00b17	-0.019536538
253	0x3d116a98	0.035502046
254	0x3c785eb8	0.015159301
255	0x3cd3ba3e	0.025845643

output.weight f4 [2, 300]
0	0x3c2e9fbd	0.010658202
1	0x3e79e565	0.24403913
2	0x3e12e553	0.14345293
3	0xbe9a5eb4	-0.30150378
4	0xbe99c430	-0.30032492
5	0xbeebec91	-0.46078923
6	0xbdc50fe3	-0.09622171
7	0xbe22e9ff	-0.15909575
8	0xbdc86690	-0.09785187
9	0x3e5f73f4	0.21821576
10	0x3e67c908	0.22635281
11	0x3e733d6d	0.23753901
12	0xbdff0c86	-0.124535605
13	0xbc8699ef	-0.016430823
14	0x3e53b386	0.20673952
15	0x3d84c8ab	0.06483587
16	0xbd921852	-0.07133545
17	0xbea33911	-0.31879476
18	0xbec0d7d4	-0.37664664
19	0x3c47ec05	0.012202268
20	0x3e24503c	0.16046232
21	0xbea05bbf	-0.31319997
22	0x3e635df9	0.22203816
23	0xbef71ad1	-0.48262647
24	0x3e26edb0	0.16301608
25	0x3e3f7549	0.18697084
26	0xbdc65c99	-0.0968563
27	0x3eb5d79c	0.3551606
28	0xbe0487e2	-0.1294246
29	0x3d88a1ea	0.06671508
30	0xbe926857	-0.2859523
31	0xbb6f5e4c	-0.0036524711
32	0xbee3afd7	-0.44470093
33	0x3dcd9de9	0.100398846
34	0x3daa9294	0.08328739
35	0xbe236ba5	-0.15959032
36	0x3d9a8601	0.075450905
37	0xbece1eb3	-0.40257797
38	0xbe5d2a25	-0.21598108
39	0x3e229b6f	0.15879606
40	0xbe700397	-0.2343887
41	0xbe507799	-0.20358123
42	0xbe43c100	-0.19116592
43	0x3e0a1c40	0.13487339
44	0x3ca226b9	0.019793855
45	0x3cb0b0dd	0.02156871
46	0xbeeaca68	-0.4585755
47	0xbec45138	-0.38343215
48	0x3e3002fd	0.1718864
49	0xbe9e58e5	-0.30927196
50	0x3e81a54b	0.2532142
51	0x3e248a0d	0.16068287
52	0xbe73f9ec	-0.23825806
53	0x3e62d161	0.22150184
54	0x3ddb51ab	0.10708936
55	0xbe78b753	-0.24288683
56	0x3ea252ed	0.31703892
57	0x3ea4af88	0.3216517
58	0x3e8fb4fc	0.28067768
59	0x3e4cbc87	0.19993792
60	0xbe983eba	-0.29735357
61	0x3e0a5083	0.13507275
62	0xbe4b93d3	-0.19880609
63	0xbea6ba5b	-0.32564053
64	0x3e8c8ecf	0.27452704
65	0xbe9816fd	-0.2970504
66	0x3e28e830	0.16494823
67	0xbde452a5	-0.11148576
68	0x3d4db1c5	0.050218362
69	0x3dd5002f	0.10400426
70	0x3ebbf315	0.36708894
71	0x3e033e85	0.12816818
72	0xbd8e0daa	-0.069362
73	0xbd52fb76	-0.051509343
74	0x3e9df290	0.30849123
75	0xbeaf2813	-0.34210262
76	0x3f0386fc	0.51377845
77	0xbe45087e	-0.19241521
78	0xbea44b26	-0.32088584
79	0xbec300ef	-0.3808665
80	0xbe396e9d	-0.18108602
81	0x3e1908d9	0.14944781
82	0xbe17d786	-0.1482831
83	0xbc3c7131	-0.011501596
84	0xbd7bdd53	-0.061490368
85	0xbe7c2759	-0.24624385
86	0x3e40169a	0.18758622
87	0x3ec14ca7	0.37753794
88	0x3e4e5d9d	0.20152898
89	0xbe71a59f	-0.23598336
90	0x3da81ca0	0.08208585
91	0x3de860e0	0.113466024
92	0xbe9dc4e2	-0.30814272
93	0x3e3ac838	0.1824044
94	0xbd9726a9	-0.07380421
95	0x3e344d41	0.17607595
96	0x3e1095cf	0.14119647
97	0x3e1de8d1	0.15420844
98	0x3ed77ad1	0.4208589
99	0x3d866621	0.06562448
100	0x3dabe16f	0.083926074
101	0xbd025f55	-0.031829197
102	0x3e9594fa	0.29215223
103	0xbe9de395	-0.30837694
104	0xbd18c6bc	-0.037298903
105	0xbe2f570b	-0.17123048
106	0x3e9f3188	0.31092477
107	0xbe195f71	-0.14977814
108	0x3e84c080	0.25928116
109	0xbe480254	-0.19532138
110	0x3dc514da	0.09623118
111	0x3e363b23	0.17795996
112	0xbe82b061	-0.2552519
113	0xbe91704b	-0.28405985
114	0x3df9aad9	0.1219079
115	0xbddd55c5	-0.10807375
116	0xbe35c13f	-0.17749499
117	0x3cd76a97	0.026295943
118	0xbd41a269	-0.047274027
119	0xbe9b9edb	-0.30394635
120	0x3ddd922f	0.10818898
121	0x3e18f2df	0.14936398
122	0x3e3f7785	0.18697937
123	0xbe392c36	-0.18083271
124	0x3df42cfc	0.119226426
125	0x3e47d1b0	0.19513583
126	0xbe0d3f15	-0.13793595
127	0x3c3c8a0b	0.011507521
128	0xbe98a2d9	-0.29811743
129	0xbe888eeb	-0.26671538
130	0xbe8f0df7	-0.27940342
131	0x3ea0ce97	0.31407616
132	0xbe1852b8	-0.14875305
133	0xbd1ef2a5	-0.038805623
134	0xbdd8bf34	-0.10583344
135	0xbe5deb2c	-0.21671742
136	0xbe4ccf4f	-0.20000957
137	0xbeb0239f	-0.34402177
138	0x3ec30c64	0.3809539
139	0xbe3cad9c	-0.18425602
140	0xbd40650e	-0.046971373
141	0x3e8f0d13	0.27939662
142	0x3db681d0	0.089114785
143	0xbef20bef	-0.4727473
144	0x3cb0b2e1	0.021569671
145	0x3e0ad635	0.13558276
146	0x3e8a8777	0.27056476
147	0x3e8bc292	0.27296883
148	0xbe20979d	-0.15682836
149	0xbdefc498	-0.11707419
150	0xbe1830d6	-0.1486238
151	0x3d2bb1e4	0.041917697
152	0xbe6adbc7	-0.22935401
153	0x3ea8481b	0.32867512
154	0xbe40e148	-0.18835938
155	0x3dc311df	0.09524893
156	0x3dac94b2	0.08426799
157	0xbeb00e63	-0.34385976
158	0xbe2e0ec0	-0.16997814
159	0xbe19e62e	-0.15029213
160	0x3a9f1ebb	0.0012139896
161	0xbe2549db	-0.16141455
162	0xbecd593f	-0.40107152
163	0x3c9da821	0.01924521
164	0xbe5bf0dc	-0.214786
165	0xbe31386f	-0.17306684
166	0xbe6caadb	-0.23112051
167	0xbe940c53	-0.28915653
168	0x3e359671	0.1773317
169	0x3e7c861c	0.24660534
170	0x3e19561e	0.14974257
171	0xbe5d206a	-0.21594396
172	0xbdd26850	-0.10273802
173	0x3e562f0e	0.20916387
174	0x3e54661b	0.20742075
175	0xbe8d38c8	-0.27582383
176	0x3f068d4d	0.5255936
177	0xbdaabfd7	-0.08337372
178	0x3e0dec53	0.13859682
179	0xbeea766e	-0.4579348
180	0x3e21bf86	0.15795717
181	0x3e7b2795	0.24526818
182	0x3cdfa879	0.027302014
183	0xbcfc14aa	-0.030771572
184	0x3dd9d6b9	0.10636658
185	0xbe8219ed	-0.25410405
186	0x3d9b6349	0.075872965
187	0x3e923715	0.2855765
188	0xbe9acb09	-0.3023303
189	0xbe71e68e	-0.23623106
190	0xbeb2d695	-0.34929338
191	0xbed39c20	-0.4133005
192	0x3cb4cf5d	0.022071535
193	0xbe8b82eb	-0.2724832
194	0x3d36f7f2	0.044670053
195	0xbd535639	-0.0515959
196	0x3e82ebef	0.25570628
197	0xbe3fcc1b	-0.18730204
198	0x3e0a914d	0.1353199
199	0xbd9a20a1	-0.07525755
200	0x3e6ecbb1	0.2331989
201	0x3dde0f70	0.10842788
202	0xbeaa78af	-0.332952
203	0xbe2c2eb7	-0.16814695
204	0xbee0074e	-0.43755573
205	0xbe44d37b	-0.19221298
206	0xbcfc3369	-0.030786233
207	0x3e1ffd82	0.1562405
208	0xbc698d02	-0.01425481
209	0xbe745349	-0.23859896
210	0x3eca6ef8	0.39537787
211	0x3e313377	0.17304789
212	0xbe23cbfd	-0.15995784
213	0x3cce5d45	0.025190959
214	0xbeb293e1	-0.34878448
215	0xbdc6848e	-0.096932516
216	0xbe412adf	-0.1886401
217	0xbe125850	-0.14291501
218	0xbdca0e82	-0.098660484
219	0xbe8e74f1	-0.27823594
220	0xbe470686	-0.19436082
221	0xbe8205f8	-0.2539518
222	0xbee599e9	-0.44843987
223	0xbe41c316	-0.18922076
224	0xbb652e46	-0.0034970208
225	0xbe42badb	-0.19016592
226	0x3e50a148	0.20374024
227	0x3ebf2936	0.3733613
228	0xbdbbc44e	-0.091683015
229	0x3e337153	0.17523699
230	0xbeb2d61c	-0.34928977
231	0x3da72516	0.081613705
232	0xbe9722cd	-0.29518738
233	0x3e73c352	0.23804978
234	0xbedba304	-0.4289781
235	0x3dddd6dc	0.10831997
236	0xbed584b3	-0.41702804
237	0xbdcd4253	-0.10022416
238	0x3e9bb692	0.30412728
239	0xbe1240ca	-0.14282528
240	0xbe430cf8	-0.19047916
241	0x3d14983b	0.03627799
242	0xbe83cd10	-0.25742388
243	0x3e21cc7c	0.15800661
244	0xbe10bc8a	-0.14134422
245	0x3d4dc55c	0.050237045
246	0xbea81e7e	-0.32835764
247	0xbe0bf307	-0.13666926
248	0x3e3dd059	0.1853651
249	0x3e14a616	0.14516482
250	0x3de8aea2	0.113614336
251	0x3e923f6a	0.28564006
252	0xbd3c2a40	-0.04593873
253	0xbe37f070	-0.17962813
254	0x3e82b30a	0.2552722
255	0xbe9abc4a	-0.30221778

output.bias f4 [2]
0	0xbc088b28	-0.008333959
1	0xbbaed280	-0.005335152

bn1.weight f4 [24]
0	0x3f2db4a7	0.6785378
1	0x3ee431c0	0.44569206
2	0x3e73e26a	0.23816839
3	0x3e911f8b	0.28344378
4	0x3eb8a18e	0.36060756
5	0x3ed11f9b	0.40844426
6	0x3f5253e8	0.8215928
7	0x3e7f9715	0.24959977
8	0x3f716188	0.94289446
9	0x3f0c06f3	0.54698104
10	0x3f2a4951	0.6651812
11	0x3f2ff0aa	0.687266
12	0x3f304c65	0.6886657
13	0x3ecdf5a1	0.40226462
14	0x3e89ed8b	0.26939043
15	0x3f3b7854	0.7323048
16	0x3f320626	0.6954063
17	0x3f31b5e2	0.69418156
18	0x3f22f845	0.6366008
19	0x3f5abe98	0.85447073
20	0x3ec5f02c	0.386598
21	0x3eec407b	0.46142945
22	0x3f08f72f	0.5350217
23	0x3f239368	0.638968

bn1.bias f4 [24]
0	0x3caba935	0.020954708
1	0xbd8a61de	-0.06756948
2	0x3d8f4fd1	0.06997646
3	0xbd56c2be	-0.052431814
4	0x3cb54ed0	0.022132307
5	0xbb5c6b0b	-0.0033633139
6	0x3d852436	0.06501047
7	0xbd944c51	-0.07241119
8	0x3ceca545	0.0288874
9	0xbd3a049d	-0.045414556
10	0x3bdc4a3e	0.0067227175
11	0xbd9d60bb	-0.076844655
12	0x3c8481c8	0.016175166
13	0x3c57e9b0	0.013178274
14	0x3e051dc9	0.12999643
15	0xbd0cb8f1	-0.03435606
16	0x3ce4b4fd	0.027918333
17	0xbdce349e	-0.1006863
18	0x39936564	0.00028113567
19	0xbd825b86	-0.06365113
20	0x3ccf2e3f	0.025290607
21	0xbd0fc0ec	-0.035096094
22	0x3b5773c7	0.0032875405
23	0xbd5dcc15	-0.054149706

bn1.running_mean f4 [24]
0	0xc0ce326e	-6.443656
1	0xbf311d79	-0.69185597
2	0x4033bb85	2.8083203
3	0x3d4bed57	0.04978689
4	0xbeeb9e6b	-0.460193
5	0x40728c23	3.7898033
6	0x4033bb85	2.8083203
7	0x3d4bed57	0.04978689
8	0xc0d48a66	-6.6418943
9	0xbf34df4e	-0.70653236
10	0x40184a34	2.379529
11	0xbacdd57d	-0.0015703883
12	0xbed76d0a	-0.42075378
13	0x40701df3	3.751828
14	0x40184a34	2.379529
15	0xbacdd57d	-0.0015703883
16	0xc0da72a9	-6.8264966
17	0xbf3b3159	-0.73122174
18	0x4032b4b9	2.7922804
19	0xbd2f4724	-0.042792454
20	0xbebdabed	-0.3704523
21	0x406e2ace	3.7213626
22	0x4032b4b9	2.7922804
23	0xbd2f4724	-0.042792454

bn1.running_var f4 [24]
0	0x417e582e	15.896528
1	0x3f8f787a	1.1208642
2	0x43c30903	390.0704
3	0x414257f9	12.146478
4	0x41ffd3d6	31.978436
5	0x4045fb9a	3.0934815
6	0x43c30903	390.0704
7	0x414257f9	12.146478
8	0x4172ac48	15.167061
9	0x3f91be2e	1.1386163
10	0x43c757e3	398.6866
11	0x414670a5	12.402501
12	0x4206e51f	33.72375
13	0x4052971c	3.290473
14	0x43c757e3	398.6866
15	0x414670a5	12.402501
16	0x416d149b	14.817531
17	0x3f93cef8	1.1547537
18	0x43c59204	395.14075
19	0x41498d77	12.597037
20	0x420fe036	35.968956
21	0x4068eec2	3.6395726
22	0x43c59204	395.14075
23	0x41498d77	12.597037
