checkpoint_critic_0.pth (torch_old, 567853 bytes, 9 tensors)

fc1.weight f4 [400, 48]
-0.021283127 0.021840295 0.008464846 -0.15531087 0.16983925 -0.19771023 -0.19455793 -0.1389126
-0.17575431 0.14587066 -0.07814167 0.4853538 0.10966545 -0.18440361 -0.12877914 -0.17868803
-0.17975171 0.27094078 0.11439251 0.027660364 -0.11200655 0.28337103 0.22038811 0.12602118
-0.33856055 -0.14284664 -0.28516814 0.3931387 -0.12133466 -0.19527142 -0.34704626 0.14163512
-0.12162275 0.0281965 0.08395646 -0.038184017 -0.032426275 -0.045507666 0.20090912 0.25046816
0.1300315 0.19392641 0.30867726 0.08630791 -0.05439379 0.13952242 0.098542415 0.090186186
0.02934258 0.15372184 0.008767382 0.19892551 -0.09956484 -0.09496439 0.011119416 0.043736983
-0.25432584 0.07161279 -0.050317764 0.23744178 -0.049041193 0.016826095 -0.23568714 0.036453284
-0.26614705 0.20419702 0.137643 0.06542459 -0.10772718 0.21199447 0.1448739 0.0424592
-0.55121994 -0.094345815 0.07423516 -0.0059522246 0.0851357 -0.22406459 -0.17019857 -0.15022008
-0.06616187 0.22799543 0.00086896564 0.064420074 0.04541509 0.17049098 0.20347637 0.3683721
-0.08837076 0.28034693 -0.12017874 0.017298885 0.11912904 0.24172023 0.09308879 0.084940135
-0.049109414 0.10237454 -0.19047882 -0.12775545 0.2538884 0.15756977 -0.19831844 -0.22336757
-0.14678141 0.05227384 -0.03667168 -0.13153604 -0.0343955 0.15361853 -0.039052207 0.0007178243
-0.27785552 -0.4233351 -0.09884581 -0.062171835 -0.17624752 -0.28381816 0.19184731 -0.06741834
0.20976254 0.11543663 0.0700736 0.0550285 -0.2736108 0.24192154 -0.10268318 -0.1513616
0.10343704 0.091938704 0.04671145 -0.3396333 0.0051752995 0.18680936 0.032858282 -0.016131973
0.056237914 -0.09379114 0.019679515 -0.013976006 0.17971547 -0.3369405 -0.04557245 -0.06165362
0.22877268 -0.048912026 0.118989855 -0.2721609 0.12783507 -0.07046644 0.07472513 -0.25714356
-0.0043651164 -0.061384972 -0.07080089 -0.30595174 -0.08145382 -0.033676576 -0.10800977 -0.0840852
-0.18964787 0.12710983 -0.054840613 0.18678823 -0.05643656 0.23811726 -0.13976544 0.031948246
-0.6549398 0.16489206 0.28463927 0.13460185 -0.08214793 -0.07647543 -0.20072073 -0.021052547
-0.24026322 0.2210443 -0.08026668 -0.13593066 0.015118787 0.012125477 0.087105736 -0.1329363
0.036875162 0.22209236 0.15086819 -0.3211316 -0.15677318 0.31326276 0.15561494 -0.39271387
0.30649173 -0.0023407734 0.052163746 -0.1280335 0.049636684 -0.30394906 -0.011003174 -0.10027626
-0.11909127 0.07888123 -0.048003484 -0.13538493 0.05821206 0.33656672 0.036700368 -0.046636876
-0.11612938 -0.009484493 -0.0036331222 -0.060712546 -0.2837115 0.36075214 -0.13074987 0.04131971
0.029217014 0.18576835 -0.0059151016 -0.00069096737 0.058840733 -0.24522352 -0.11426004 -0.015032223
-0.03519901 -0.0516753 0.11508368 -0.5917317 0.23790936 0.5461383 -0.052561983 -0.46449032
0.124313496 -0.10805131 -0.037955377 -0.0798101 0.0811308 0.35385236 -0.008524206 -0.121443234
0.055539977 -0.28944653 -0.09600154 -0.044274513 0.59532505 0.010198479 -0.08658254 0.15156847
0.1761461 -0.09719982 -0.0125903655 0.07996889 -0.00080940046 -0.11991465 -0.032349702 0.025523143
00000000: f459 aebc 6bea b23c 23b0 0a3c d009 1fbe
00000010: 57ea 2d3e 8d74 4abe 323a 47be 1b3f 0ebe
00000020: f0f8 33be 1e5f 153e bd08 a0bd 4b80 f83e
00000030: 4898 e03d 4dd4 3cbe aede 03be fff9 36be
00000040: d510 38be c0b8 8a3e 9f46 ea3d fd97 e23c
00000050: b163 e5bd 0216 913e 6cad 613e b20b 013e
00000060: cf57 adbe 6446 12be 8f01 92be 7a49 c93e
00000070: 4e7e f8bd 3bf5 47be 0cb0 b1be cc08 113e
00000080: 5915 f9bd 59fc e63c 5df1 ab3d d866 1cbd
00000090: 6ad1 04bd 3f66 3abd 1fbb 4d3e 5d3d 803e
000000a0: fa26 053e a594 463e f20a 9e3e 34c2 b03d
000000b0: 06cc 5ebd f7de 0e3e 9bd0 c93d 89b3 b83d
000000c0: da5f f03c 4269 1d3e 11a5 0f3c 21b3 4b3e
000000d0: a7e8 cbbd b17c c2bd 362e 363c 8d25 333d
000000e0: ff36 82be baa9 923d 001a 4ebd f023 733e
000000f0: 6bdf 48bd e1d6 893c f857 71be 0a50 153d
00000100: 6d44 88be 0619 513e 49f2 0c3e 54fd 853d
00000110: 11a0 dcbd 1415 593e d359 143e b3e9 2d3d
00000120: c01c 0dbf 6138 c1bd 9b08 983d e10a c3bb
00000130: a05b ae3d 3071 65be 8948 2ebe 4bd3 19be
00000140: e07f 87bd a277 693e 4ccb 633a acee 833d
00000150: 2c05 3a3d 3095 2e3e 1c5c 503e 459b bc3e
00000160: bbfb b4bd a289 8f3e 4520 f6bd 64b6 8d3c
00000170: edf9 f33d 8285 773e 56a5 be3d 18f5 ad3d
00000180: f426 49bd bea9 d13d e10c 43be 53d2 02be
00000190: a9fd 813e f859 213e fd13 4bbe 78ba 64be
000001a0: de4d 16be 181d 563d 0b35 16bd 62b1 06be
000001b0: 4ce2 0cbd 2d4e 1d3e 35f5 1fbd 602c 3c3a
000001c0: 1443 8ebe 61bf d8be ac6f cabd e5a7 7ebd
000001d0: 3b7a 34be 9d50 91be 9f73 443e a012 8abd
000001e0: fecb 563e 0a6a ec3d bf82 8f3d 9065 613d
000001f0: b716 8cbe 48ba 773e 8f4b d2bd 89fe 1abe
00000200: ccd6 d33d 5c4a bc3d 8154 3f3d 6ae4 adbe
00000210: 8f95 a93b f44a 3f3e 6896 063d 3327 84bc
00000220: ba59 663d 9215 c0bd ef36 a13c 9efb 64bc
00000230: 5507 383e 7783 acbe 2daa 3abd 8288 7cbd
00000240: 6343 6a3e fa57 48bd f4b0 f33d ac58 8bbe
00000250: 32e7 023e b550 90bd 7d09 993d 52a8 83be
00000260: 4009 8fbb cf6e 7bbd 0f00 91bd b5a5 9cbe
00000270: 43d1 a6bd 73f0 09bd 3a34 ddbd dd34 acbd
00000280: 0d33 42be 1429 023e 8da0 60bd 6a45 3f3e
00000290: 062a 67bd 03d5 733e ac1e 0fbe 2adc 023d
000002a0: 22aa 27bf 77d9 283e 3dbc 913e 11d5 093e
000002b0: 2d3d a8bd 269f 9cbd bc89 4dbe 6476 acbc
000002c0: 9007 76be 7059 623e db62 a4bd 6831 0bbe
000002d0: cab4 773c f0a9 463c 7e64 b23d 7420 08be
000002e0: 690a 173d 2e6c 633e 317d 1a3e 5c6b a4be
000002f0: 2689 20be fa63 a03e 8659 1f3e cb11 c9be
00000300: 7cec 9c3e a967 19bb a7a9 553d 371b 03be
00000310: d64f 4b3d 369f 9bbe a846 34bc a45d cdbd
00000320: 20e6 f3bd 7b8c a13d 4d9f 44bd 59a2 0abe
00000330: c56f 6e3d 7952 ac3e 2053 163d 4f06 3fbd
00000340: 3ed5 edbd d964 1bbc ad19 6ebb b8ad 78bd
00000350: a242 91be 81b4 b83e 4be3 05be db3e 293d
00000360: 8558 ef3c 0f3a 3e3e 78d3 c1bb 0922 35ba
00000370: fb02 713d e01b 7bbe 2b01 eabd b749 76bc
00000380: d62c 10bd 7ba9 53bd feb0 eb3d bb7b 17bf
00000390: 839e 733e b8cf 0b3f 3c4b 57bd add1 edbe
000003a0: 1398 fe3d 014a ddbd 1977 1bbd 7a73 a3bd
000003b0: e827 a63d 232c b53e 1ca9 0bbc 3bb7 f8bd
000003c0: e37d 633d 5632 94be 759c c4bd 3159 35bd
000003d0: 3967 183f 8517 273c 3052 b1bd c434 1b3e
000003e0: a55f 343e b310 c7bd d247 4ebc bbc6 a33d
000003f0: f22d 54ba d095 f5bd 1f81 04bd e915 d13c

fc1.bias f4 [400]
-0.14896029 -0.23143403 -0.21217723 -0.17278177 -0.08473866 -0.13088351 -0.066111766 -0.26679435
-0.14040199 -0.27557158 -0.20721483 -0.24288486 -0.17106621 -0.2316903 -0.19133092 -0.12554657
-0.24715234 -0.19901724 -0.09400279 -0.113925956 -0.1357788 -0.18395211 -0.22420263 -0.41458702
-0.19027998 -0.25859708 -0.18435358 -0.22861716 -0.15040158 -0.30804038 -0.19148917 -0.30816305
-0.25139382 -0.090890445 -0.10301255 -0.3427755 -0.19188452 -0.29758254 -0.1455545 -0.28216833
-0.25325447 -0.23128913 -0.19952981 -0.1481657 -0.05074692 -0.14441597 -0.2150197 -0.1946899
-0.1814736 -0.23993906 -0.19742665 -0.076419905 -0.17133479 -0.15440996 -0.13822724 -0.25386748
-0.16790986 -0.10394879 -0.1342818 -0.32000506 -0.21092793 -0.26536942 -0.2537871 -0.20796311
-0.24649985 -0.23115064 -0.2868742 -0.2266277 -0.12158335 -0.23688588 -0.27981275 -0.27882555
-0.22757062 -0.19640405 -0.19067405 -0.167259 -0.0035417741 -0.27136973 -0.22065601 -0.116793334
-0.19016996 -0.186506 -0.19007327 -0.14947927 -0.021885257 -0.21166955 -0.18144454 -0.299828
-0.19139095 -0.27494836 -0.16810822 -0.15608697 -0.19763923 -0.1895586 -0.27472144 -0.072651744
-0.2620114 -0.2551974 -0.17240088 -0.10431792 -0.16418031 -0.09556269 -0.1614731 -0.17846096
-0.23726247 -0.16328444 -0.104783095 -0.2559751 -0.2444444 -0.19760546 -0.2613079 -0.3329118
-0.15302947 -0.23359512 -0.06720202 -0.31670526 -0.25324902 -0.19368881 -0.22495188 -0.24284613
-0.2789248 -0.099711396 -0.16737753 -0.11419653 -0.17015435 -0.22549108 -0.21457927 -0.17780721
-0.14251144 -0.14823003 -0.22095264 -0.12192719 -0.14842494 -0.3367888 -0.19434944 -0.1643413
-0.2642389 -0.17296866 -0.15639757 -0.16695559 -0.21973126 -0.16521148 -0.13127968 -0.15933521
-0.23484282 -0.23696789 -0.19497801 -0.21873417 0.113358 -0.17643972 -0.17318107 -0.0909103
-0.09111856 -0.23079179 -0.21651243 -0.20679879 -0.1800331 -0.1694039 -0.19771242 -0.23298147
-0.1485392 -0.11211528 -0.27573696 -0.11828067 -0.32835907 -0.29717287 -0.24638213 -0.18158603
-0.26339388 -0.102810934 -0.21916261 -0.1459551 -0.20538704 -0.16948415 -0.27762932 -0.27576387
-0.32791463 -0.12524475 -0.25382152 -0.22221176 -0.06718152 -0.17147659 -0.17709874 -0.2832577
-0.18931524 -0.26532602 -0.2857249 -0.21954113 -0.23185492 -0.18741283 -0.045716543 -0.18307851
-0.3375667 -0.17052662 -0.21983664 -0.14137003 -0.24133949 -0.1827581 -0.21135996 -0.2668646
-0.12192783 -0.27139887 -0.2233874 -0.18680473 -0.20701097 -0.30034205 -0.20209481 -0.11676917
-0.17950231 -0.23052676 -0.16619971 -0.010497799 -0.1526903 -0.14083995 -0.18495582 -0.13770024
-0.20036355 -0.21702178 -0.20632966 -0.12410969 -0.19090955 -0.2812162 -0.15341061 -0.2513295
-0.12534507 -0.2800807 -0.26539925 -0.12883352 -0.12153857 -0.10157695 -0.12822315 -0.12719837
-0.18678634 -0.13826735 -0.22181785 -0.14154555 -0.2941021 -0.20494765 -0.2862216 -0.23119648
-0.24438718 -0.19115421 -0.08112295 -0.19814874 -0.3575987 -0.062064007 -0.18710746 -0.21109307
-0.20405158 -0.18044806 -0.17573485 -0.32415807 -0.33663863 -0.13788801 -0.15233426 -0.26782212
00000000: 0c89 18be 0bfd 6cbe fd44 59be b4ed 30be
00000010: 768b adbd 5406 06be 9b65 87bd 4599 88be
00000020: 8ac5 0fbe b817 8dbe 2030 54be cfb6 78be
00000030: fb2b 2fbe 3940 6dbe 41ec 43be 488f 00be
00000040: 8115 7dbe 2dcb 4bbe 8984 c0bd 0352 e9bd
00000050: 9909 0bbe f15d 3cbe 6095 65be c044 d4be
00000060: c1d8 42be d666 84be 2fc7 3cbe 9e1a 6abe
00000070: df02 1abe 78b7 9dbe bd15 44be 8cc7 9dbe
00000080: b1b6 80be c524 babd 3ef8 d2bd 4580 afbe
00000090: 607d 44be bd5c 98be 3d0c 15be 5e78 90be
000000a0: 92aa 81be 0fd7 6cbe 8b51 4cbe c0b8 17be
000000b0: 01dc 4fbd c8e1 13be 202e 5cbe ca5c 47be
000000c0: 37d4 39be 96b2 75be 362a 4abe 0a82 9cbd
000000d0: 6372 2fbe a51d 1ebe 718b 0dbe ebfa 81be
000000e0: 90f0 2bbe 1ae3 d4bd 2b81 09be b4d7 a3be
000000f0: 7efd 57be 80de 87be 62f0 81be 48f4 54be
00000100: 756a 7cbe c1b2 6cbe 2de1 92be 1711 68be
00000110: b100 f9bd 3692 72be 9e43 8fbe 39c2 8ebe
00000120: 4608 69be 251e 49be 0f40 43be f145 2bbe
00000130: 1c1d 68bb f9f0 8abe a6f3 61be 5831 efbd
00000140: eabb 42be 6efb 3ebe 91a2 42be 1811 19be
00000150: b648 b3bc e7bf 58be 99cc 39be 0e83 99be
00000160: fdfb 43be 08c6 8cbe 9024 2cbe 43d5 1fbe
00000170: f061 4abe a61b 42be 4aa8 8cbe 70ca 94bd
00000180: 5c26 86be 3ca9 82be db89 30be a2a4 d5bd
00000190: e21e 28be 5fb6 c3bd 3459 25be 78be 36be
000001a0: eff4 72be 0934 27be 8598 d6bd 2b0f 83be
000001b0: a24f 7abe 1659 4abe 26ca 85be 6a73 aabe
000001c0: c2b3 1cbe 8f33 6fbe 36a1 89bd 3127 a2be
000001d0: dba9 81be 5c56 46be c959 66be a8ac 78be
000001e0: 3bcf 8ebe 7d35 ccbd 0465 2bbe dfdf e9bd
000001f0: f13c 2ebe 22e7 66be abba 5bbe 1813 36be
00000200: 85ee 11be 9dc9 17be 6941 62be f6b4 f9bd
00000210: b5fc 17be 956f acbe 8a03 47be 1649 28be
00000220: 524a 87be b21e 31be af26 20be 68f6 2abe
00000230: 3b01 61be 332d 29be 2e6e 06be c528 23be
00000240: a37a 70be b6a7 72be 51a8 47be dafb 5fbe
00000250: 3d28 e83d 9dac 34be 6156 31be 2e2f babd
00000260: 5e9c babd af54 6cbe 6fb5 5dbe 10c3 53be
00000270: 995a 38be 3778 2dbe 2075 4abe b292 6ebe
00000280: a91a 18be b29c e5bd 652d 8dbe 233d f2bd
00000290: ae1e a8be 0b27 98be 994b 7cbe b0f1 39be
000002a0: 90db 86be 8a8e d2bd 2a6c 60be 4175 15be
000002b0: fb50 52be 418d 2dbe 6e25 8ebe ec30 8dbe
000002c0: 6de4 a7be 2940 00be e5f4 81be 7b8b 63be
000002d0: 7796 89bd 8f97 2fbe 5f59 35be 2707 91be
000002e0: dbdb 41be d0d8 87be 894a 92be 64cf 60be
000002f0: 606b 6dbe 26e9 3fbe 4541 3bbd ef78 3bbe
00000300: 8bd5 acbe 889e 2ebe db1c 61be 4ec3 10be
00000310: b321 77be f024 3bbe bf6e 58be 7aa2 88be
00000320: 4cb5 f9bd cbf4 8abe abbf 64be bd49 3fbe
00000330: affa 53be 6fc6 99be f1f1 4ebe ad24 efbd
00000340: 74cf 37be 350f 6cbe 4230 2abe f6fe 2bbc
00000350: d95a 1cbe 5938 10be 0f65 3dbe 4b01 0dbe
00000360: 1a2c 4dbe f53a 5ebe 1548 53be 392d febd
00000370: cb7d 43be 92fb 8fbe ac17 1dbe 43ae 80be
00000380: 755a 00be bd66 8fbe 69e2 87be efec 03be
00000390: 37e9 f8bd 9307 d0bd ee4c 03be 4a40 02be
000003a0: eb44 3fbe f595 0dbe 3824 63be 51f1 10be
000003b0: 8d94 96be ccdd 51be a38b 92be c5be 6cbe
000003c0: a240 7abe eebd 43be ca23 a6bd 81e7 4abe
000003d0: 2d17 b7be d436 7ebd 1999 3fbe c828 58be
000003e0: e6f2 50be 60c7 38be d6f3 33be 0cf8 a5be
000003f0: e65b acbe 8432 0dbe 83fd 1bbe fb1f 89be

fc2.weight f4 [300, 404]
-0.074640706 0.09785458 -0.16593255 0.10197686 -0.06169301 -0.17457278 -0.21846536 -0.07105393
-0.2488568 -0.1768869 -0.07899184 -0.4758333 -0.29239756 0.005864955 -0.03434084 -0.31787026
-0.12330395 -0.2920275 0.053062074 -0.5362003 0.15578766 0.05967162 -0.09522805 0.21102081
-0.2950751 -0.006783515 -0.23292978 0.008517515 -0.20237634 0.016754422 -0.35512957 0.008728566
0.028771192 0.09422933 0.117082804 0.08316463 -0.5086261 -0.42037863 -0.12325265 0.1880426
0.04507963 -0.15713832 -0.2248571 -0.09373995 0.18124153 -0.7184209 0.2061243 -0.25737384
-0.034425262 0.1323218 -0.21932638 -0.11372625 0.21775801 -0.10781027 -0.00071425305 0.36750966
-0.055207513 -0.058516115 -0.25320777 0.09232427 0.0636403 0.028193953 -0.06863538 -0.118045904
0.09437582 -0.105759464 0.0251198 0.025057947 -0.21808706 0.15559334 0.12287748 -0.2864115
0.14099933 -0.12534802 0.18223077 -0.33847198 -0.38039964 0.016027663 0.3040994 0.07914026
-0.1539712 -0.33089247 -0.16679722 -0.26389065 -0.31348148 0.026270762 0.22932962 -0.26361528
0.0551174 -0.068450466 -0.39731726 -0.3076783 -0.07902038 -0.43625477 -0.023473889 0.15634392
0.094804764 -0.5529721 -0.20263842 0.02970931 -0.09999069 0.16001056 -0.06669913 -0.18156485
0.0876127 0.103832945 0.09709147 -0.27245298 -0.21317454 -0.39086747 0.0085415095 0.16257204
0.08630658 0.19955389 0.12999466 0.0042904164 -0.12776244 -0.3313487 0.047022615 -0.15327586
-0.05614951 0.45909888 0.23440534 -0.026996154 -0.03418936 -0.35213244 -0.22244754 -0.14625502
0.1662305 -0.4377978 -0.546133 0.02409317 -0.45816988 0.24562034 0.16520691 0.13313374
0.08883678 -0.12761036 -0.022663869 0.030047346 -0.2325915 0.07994914 -0.050359324 0.09218797
0.019658182 -0.1497903 0.03572047 0.070991434 -0.41932535 -0.14126208 0.15027158 -0.13871257
-0.55325496 -0.37878114 -0.44386375 -0.18900731 0.11224252 -0.20050947 -0.460648 0.2518645
-0.13066188 -0.04166275 -0.13354479 -0.14607418 0.05170166 0.027656866 0.13302979 -0.2524382
-0.19866621 -0.020456083 -0.09420217 0.05715634 -0.07819493 -0.177741 -0.13732594 0.35564074
-0.057400342 -0.15609546 -0.035973944 -0.61415744 -0.26427677 -0.14579843 -0.2367159 0.019669019
-0.7139497 -0.13682082 -0.06087108 0.2129502 0.029747149 0.18397716 0.16019762 -0.59836614
-0.24650322 -0.40909758 0.09296267 -0.024770668 -0.24010009 0.09211784 -0.006561589 -0.06982176
0.09983291 -0.10285221 0.016820468 -0.30082074 -0.2864896 -0.047278605 0.094098985 -0.50070614
-0.1260678 -0.029046759 0.33559722 -0.056366008 -0.1638907 0.11572913 -0.14582549 -0.1697312
-0.21111171 0.09097366 -0.4410135 -0.4277483 0.01589752 0.11853954 -0.5762926 -0.014489192
0.26929045 -0.005600178 -0.057025064 -0.14362116 0.21482308 -0.29689878 -0.12403023 0.10972708
0.11158198 -0.09166771 0.025133852 -0.12072214 0.40851387 -0.25058123 -0.2689758 -0.043181054
-0.12209221 -0.178146 -0.3398398 0.080318235 0.117726795 -0.17854036 0.13480163 0.0022255436
-0.11827965 -0.09191222 0.20510449 -0.05297444 0.03758276 -0.12361355 0.11590546 -0.2674257
00000000: 3add 98bd fb67 c83d 39ea 29be 3ed9 d03d
00000010: cfb1 7cbd 35c3 32be 62b5 5fbe b984 91bd
00000020: 51d4 7ebe d721 35be 79c6 a1bd 6ca0 f3be
00000030: 22b5 95be cf2e c03b fba8 0cbd e4bf a2be
00000040: c886 fcbd a184 95be 9e57 593d 6c44 09bf
00000050: cd86 1f3e 3b6a 743d ed06 c3bd d715 583e
00000060: 1514 97be 4048 debb 2585 6ebe 0c8d 0b3c
00000070: be3b 4fbe 9240 893c 8bd3 b5be 4202 0f3c
00000080: 90b1 eb3c 4ffb c03d 1cc9 ef3d 3852 aa3d
00000090: 5235 02bf de3b d7be e36b fcbd 3d8e 403e
000000a0: 6ba5 383d dee8 20be f140 66be bbfa bfbd
000000b0: 6197 393e 6fea 37bf 4012 533e 81c6 83be
000000c0: 8101 0dbd 5e7f 073e 1897 60be 4fe9 e8bd
000000d0: f5fb 5e3e a1cb dcbd b63c 3bba 3a2a bc3e
000000e0: 4621 62bd 98ae 6fbd 73a4 81be 8214 bd3d
000000f0: d855 823d 01f7 e63c b590 8cbd 0dc2 f1bd
00000100: 1c48 c13d 6b98 d8bd 0ac8 cd3c 5346 cd3c
00000110: 3752 5fbe dc53 1f3e 30a7 fb3d 87a4 92be
00000120: 2162 103e 3b5b 00be b49a 3a3e 334c adbe
00000130: bec3 c2be 724c 833c ebb2 9b3e 4a14 a23d
00000140: a0aa 1dbe bd6a a9be e4cc 2abe ad1c 87be
00000150: a580 a0be c835 d73c 62d5 6a3e 95f8 86be
00000160: c8c2 613d c22f 8cbd 2b6d cbbe 0388 9dbe
00000170: 70d5 a1bd c95c dfbe 504c c0bc 9f18 203e
00000180: 0029 c23d 948f 0dbf 7280 4fbe f060 f33c
00000190: ebc7 ccbd cfd9 233e 8e99 88bd 23ec 39be
000001a0: 4a6e b33d 5ea6 d43d e5d7 c63d f57e 8bbe
000001b0: 6d4a 5abe c81f c8be b0f1 0b3c 4979 263e
000001c0: 81c1 b03d db57 4c3e 521d 053e 9f96 8c3b
000001d0: 28d4 02be 89a6 a9be c99a 403d 59f4 1cbe
000001e0: 07fd 65bd 020f eb3e f407 703e 0a27 ddbc
000001f0: 240a 0cbd b44a b4be 4ac9 63be e0c3 15be
00000200: 5438 2a3e 0927 e0be 5fcf 0bbf 0a5f c53c
00000210: 3e95 eabe e683 7b3e 002c 293e 3654 083e
00000220: 0ff0 b53d 4aac 02be 94a9 b9bc da25 f63c
00000230: 772c 6ebe 60bc a33d 9445 4ebd 0ccd bc3d
00000240: 320a a13c a162 19be a14f 123d f563 913d
00000250: d0b1 d6be 02a7 10be cbe0 193e ab0a 0ebe
00000260: 1ea2 0dbf 9aef c1be 1c42 e3be 228b 41be
00000270: 68df e53d 5b52 4dbe 0eda ebbe 62f4 803e
00000280: 3acc 05be 8fa6 2abd f7bf 08be 7894 15be
00000290: 1fc5 533d a790 e23c f638 083e 943f 81be
000002a0: 286f 4bbe 8493 a7bc 11ed c0bd c41c 6a3d
000002b0: aa24 a0bd bd01 36be 2c9f 0cbe 8b16 b63e
000002c0: 9f1c 6bbd 7dd7 1fbe 6a59 13bd 6c39 1dbf
000002d0: 494f 87be 2f4c 15be a765 72be ec20 a13c
000002e0: 68c5 36bf c21a 0cbe f453 79bd 9e0f 5a3e
000002f0: 4bb0 f33c 8264 3c3e d80a 243e 862e 19bf
00000300: 576b 7cbe 3d75 d1be 3663 be3d dbeb cabc
00000310: ccdc 75be 47a8 bc3d 9902 d7bb b6fe 8ebd
00000320: 3275 cc3d 2ea4 d2bd 14cb 893c 2d05 9abe
00000330: c4ae 92be 36a7 41bd f8b6 c03d 472e 00bf
00000340: eb17 01be 78f3 edbc 66d3 ab3e 0be0 66bd
00000350: f7d2 27be 6503 ed3d 4753 15be 04ce 2dbe
00000360: ab2d 58be 6650 ba3d 85cc e1be d301 dbbe
00000370: 843b 823c dcc4 f23d e987 13bf 1364 6dbc
00000380: 70e0 893e b381 b7bb 1d93 69bd 6d11 13be
00000390: 95fa 5b3e 1e03 98be 9003 febd 97b8 e03d
000003a0: 1885 e43d 48bc bbbd 82e5 cd3c 2b3d f7bd
000003b0: bb28 d13e 2f4c 80be 32b7 89be 9ede 30bd
000003c0: 7b0b fabd e86b 36be 7bff adbe e37d a43d
000003d0: bf1a f13d 49d3 36be 7009 0a3e 6dda 113b
000003e0: 9a3c f2bd 793c bcbd e906 523e bafb 58bd
000003f0: 61f0 193d 1a29 fdbd d85f ed3d 05ec 88be

fc2.bias f4 [300]
-0.16662556 -0.08232746 0.076533504 0.024519444 0.19070947 0.023651093 -0.10348192 -0.1512509
0.09671347 -0.1976134 -0.2530591 -0.106932595 -0.1412622 -0.07372874 -0.10688225 0.036832962
-0.06637648 0.071542256 0.003394764 -0.05599569 -0.23975992 -0.096212916 -0.02170864 -0.07840509
-0.15097952 -0.17141306 -0.066313304 -0.07584812 0.11615006 -0.11112412 0.15029997 0.15216343
-0.010348435 -0.31973943 -0.21212894 -0.16132154 -0.006727048 0.1776221 0.07055931 -0.17353098
-0.01757148 -0.19442724 0.022456266 -0.11521796 -0.23829463 -0.19541453 -0.18495476 -0.22345243
-0.17659405 -0.14635344 -0.013351279 -0.034701362 -0.15682188 -0.1292299 -0.19291438 0.056134418
-0.16372472 -0.022460433 -0.088051856 -0.0012849667 -0.23750457 -0.23988748 -0.016262777 -0.17689337
0.18027022 0.3150245 -0.021369081 0.027258407 -0.051911503 0.05160669 -0.21102302 -0.13177799
-0.13242753 -0.16650978 -0.14536767 0.10558708 0.09193944 -0.1811578 0.0006312031 0.008105358
0.023227355 0.039419655 0.045197405 -0.13501099 -0.13387315 -0.26250958 -0.14003614 0.050785676
0.097162955 0.07149827 0.2272934 -0.053306673 -0.17588581 -0.1128601 0.16298313 -0.048093796
0.043830115 -0.14508007 -0.2612925 -0.19014291 -0.07159636 0.17644782 0.042272646 -0.06890219
-0.14970316 -0.16931173 -0.8412939 -0.073612295 0.03593469 0.03477019 -0.16224916 -0.16924591
0.041194733 -0.038474306 -0.087209746 0.24272901 -0.17606148 0.030711906 0.24690935 -0.081993826
-0.19153951 0.19703208 0.060025435 -0.12408207 0.012648159 -0.04038657 -0.1268524 0.15054889
0.06636891 0.19527046 0.3854077 -0.2073215 -0.23105262 -0.10404395 -0.15919511 -0.099947564
-0.2016339 0.111173 0.09211965 -0.09504054 0.25711077 -0.061040618 -0.08368161 0.09718267
-0.21727891 -0.0705424 -0.10458887 -0.07271643 -0.22392486 0.16071992 -0.06408383 0.034620274
-0.10731527 -0.044798657 0.21595185 -0.08410297 -0.2447675 0.019938033 -0.18361422 0.04576144
-0.0998112 -0.004748837 0.2326677 -0.07973121 -0.2449964 0.004855792 -0.14840223 -0.29534897
-0.26937708 -0.1371547 -0.10044674 -0.09661806 -0.10061303 0.07410037 0.023609804 -0.041101314
-0.13193487 -0.090813085 -0.2272107 -0.0842599 0.050155107 0.03442495 -0.1886752 -0.122474544
-0.33205542 -0.018506892 -0.16729592 0.20798422 -0.044511884 -0.13497321 -0.033844505 0.1904081
-0.13603131 0.07681664 -0.18525247 0.2989762 -0.19682613 0.21719623 -0.29065782 -0.21438971
-0.27480236 0.11544603 -0.14881404 0.19056973 -0.26419032 -0.18710034 -0.023488492 0.030423196
-0.009294157 -0.035586007 -0.07440395 -0.047925446 0.08167558 0.12390618 -0.034774378 -0.21606328
0.06323161 0.08551991 -0.11704501 -0.12506723 0.19674464 0.037887596 -0.15927346 0.0025136925
-0.03589928 -0.14632165 -0.10111096 -0.14864618 -0.124331266 -0.040869217 -0.032826364 -0.13756733
-0.11580272 0.014178703 -0.09616713 -0.04857373 -0.17707738 0.15852034 -0.083537236 -0.12843516
-0.15199919 -0.17116699 0.0050223405 -0.1677363 0.1259614 -0.10745856 -0.11890999 -0.11465156
0.15380748 -0.08323433 0.13956432 -0.056786865 -0.26716247 -0.057049666 0.15911224 -0.039305992
00000000: e49f 2abe 4d9b a8bd 99bd 9c3d 00dd c83c
00000010: 5849 433e f0bf c13c 54ee d3bd 84e1 1abe
00000020: b611 c63d 2b5b 4abe f690 81be 7aff dabd
00000030: 0aa7 10be 18ff 96bd 15e5 dabd 29de 163d
00000040: 64f0 87bd bf84 923d b07a 5e3b bd5b 65bd
00000050: a083 75be 470b c5bd 51d6 b1bc d992 a0bd
00000060: 609a 1abe e886 2fbe 45cf 87bd 4256 9bbd
00000070: 15e0 ed3d 0b95 e3bd 3ce8 193e bbd0 1b3e
00000080: 7b8c 29bc e3b4 a3be 5438 59be 7931 25be
00000090: 926e dcbb 91e2 353e 6681 903d 1bb2 31be
000000a0: 10f2 8fbc ef17 47be 34f6 b73c 65f7 ebbd
000000b0: 8203 74be bf1a 48be c864 3dbe b7d0 64be
000000c0: 12d5 34be addd 15be 53bf 5abc 0423 0ebd
000000d0: ea95 20be d854 04be 598b 45be 34ed 653d
000000e0: 74a7 27be f1fe b7bc 8854 b4bd 546c a8ba
000000f0: 6634 73be 10a5 75be 8439 85bc 8923 35be
00000100: c298 383e e44a a13e 360e afbc 064d df3c
00000110: 28a1 54bd 8961 533d 6b16 58be cff0 06be
00000120: 159b 07be 8a81 2abe 43db 14be 0a3e d83d
00000130: bf4a bc3d 6e81 39be 5377 253a 56cc 043c
00000140: 4b47 be3c 8176 213d ea20 393d 5240 0abe
00000150: 0b16 09be a867 86be a265 0fbe a404 503d
00000160: 5ffd c63d af6d 923d 9abf 683e 1958 5abd
00000170: 691b 34be 3223 e7bd 0de5 263e 00fe 44bd
00000180: 3587 333d df8f 14be 21c8 85be d3b4 42be
00000190: 1da1 92bd bdae 343e 1526 2d3d 971c 8dbd
000001a0: c94b 19be 0e60 2dbe 095f 57bf 0bc2 96bd
000001b0: 4130 133d 306b 0e3d a524 26be cd4e 2dbe
000001c0: cfbb 283d 3c97 1dbd 069b b2bd f48d 783e
000001d0: 7649 34be 8997 fb3c ced5 7c3e 61ec a7bd
000001e0: ef22 44be c7c2 493e 3bdd 753d be1e febd
000001f0: 393a 4f3c 636c 25bd 98e5 01be 7d29 1a3e
00000200: 6cec 873d fbf4 473e 2854 c53e 164c 54be
00000210: 0f99 6cbe ff14 d5bd 0b04 23be 4fb1 ccbd
00000220: 1e79 4ebe abae e33d 3aa9 bc3d 9da4 c2bd
00000230: 06a4 833e ba05 7abd 4461 abbd b507 c73d
00000240: 5d7e 5ebe 8978 90bd b132 d6bd 5aec 94bd
00000250: 8f4c 65be c393 243e 623e 83bd fdcd 0d3d
00000260: 1cc8 dbbd cc7e 37bd 7b22 5d3e 2e3e acbd
00000270: 55a4 7abe 1655 a33c 5e05 3cbe 5970 3b3d
00000280: d069 ccbd 229c 9bbb 7140 6e3e 1e4a a3bd
00000290: 56e0 7abe 561d 9f3b c1f6 17be fb37 97be
000002a0: cbeb 89be 4872 0cbe 05b7 cdbd b0df c5bd
000002b0: 340e cebd efc1 973d 5969 c13c da59 28bd
000002c0: ef19 07be 36fc b9bd eca9 68be 7490 acbd
000002d0: 716f 4d3d 2d01 0d3d 1234 41be efd3 fabd
000002e0: 2b03 aabe c49b 97bc 9f4f 2bbe d1f9 543e
000002f0: 1852 36bd 6b36 0abe 89a0 0abd 57fa 423e
00000300: cb4b 0bbe 0b52 9d3d d3b2 3dbe 6913 993e
00000310: ca8c 49be b068 5e3e 1ad1 94be fa88 5bbe
00000320: e5b2 8cbe f86e ec3d b562 18be b624 433e
00000330: f443 87be 3b97 3fbe f06a c0bc 113a f93c
00000340: 8546 18bc a2c2 11bd 1961 98bd 794d 44bd
00000350: 8745 a73d 86c2 fd3d 946f 0ebd b13f 5dbe
00000360: 937f 813d 1025 af3d 4bb5 efbd a011 00be
00000370: 6d77 493e 0630 1b3d 9518 23be c3bc 243b
00000380: 200b 13bd 58d5 15be 4313 cfbd b436 18be
00000390: 64a1 febd 7b66 27bd f074 06bd 73de 0cbe
000003a0: fa29 edbd ca4d 683c 46f3 c4bd 3ff5 46bd
000003b0: c653 35be 2853 223e 9215 abbd 8284 03be
000003c0: ada5 1bbe 6646 2fbe 7292 a43b 11c3 2bbe
000003d0: 06fc 003e 3c13 dcbd 1587 f3bd 70ce eabd
000003e0: b57f 1d3e c376 aabd f3e9 0e3e 5899 68bd
000003f0: 85c9 88be e9ac 69bd 52ee 223e 52ff 20bd

output.weight f4 [1, 300]
0.07465569 0.07441302 0.033523936 0.029165972 0.022277858 0.026472528 -0.03688628 -0.11996496
0.02082289 -0.12719178 -0.07138846 0.15173078 -0.077015184 0.045880243 0.05255354 0.031580996
0.041678578 0.0454069 -0.0454719 -0.046728935 0.18575983 -0.15507427 0.0326152 0.07211919
0.0733799 0.076445065 -0.039901193 0.08562417 -0.051417787 0.083733626 0.030561537 0.057163358
0.043350562 -0.04854882 -0.06420933 -0.064225815 -0.04370082 0.013766047 0.07374801 -0.07965694
0.02131507 -0.047285765 0.049346298 0.09706392 -0.056663495 -0.06592448 -0.036490504 -0.058002654
-0.05160048 -0.027845312 0.028945057 0.07664162 0.046897147 0.15355492 0.11700194 0.038927283
-0.034430042 0.04724139 -0.054840285 0.06361285 -0.07320495 -0.11695191 0.03556952 -0.0847011
0.045253716 0.01764516 0.0524961 0.040041618 0.06783621 0.023314284 -0.036486864 -0.051719464
0.049528606 -0.039265845 0.21811363 0.036123723 0.034243938 0.05548982 -0.08481912 -0.07820223
-0.04264277 0.052175175 -0.032485794 -0.031780556 -0.062471107 -0.07628533 -0.11521718 0.022069136
0.019013949 -0.03905906 0.0175643 0.03383644 -0.09737286 0.0750734 -0.037699413 0.111434326
0.04272848 -0.1043057 -0.062267352 -0.09607916 0.1346766 0.020691266 0.094385386 -0.09576917
-0.033755034 -0.08358327 0.08350545 0.053218357 0.124641456 0.07575955 -0.058159597 -0.024561608
0.027060336 0.17196915 -0.083715685 -0.024426365 -0.04060832 0.032957986 -0.08201771 -0.045347337
-0.06317859 0.05653232 -0.045108095 0.0873314 0.023339488 0.027280128 0.11065473 0.016848354
0.038993355 -0.02702538 0.032048948 0.10135202 -0.08228675 0.0053776978 -0.037709743 -0.06374154
-0.05393523 0.09238126 0.027333183 0.11936428 0.03033458 -0.07887244 0.07889313 0.037820674
-0.05474448 0.113553464 0.03673519 -0.058786485 -0.049268693 0.042686682 -0.06480047 0.036940373
-0.11747207 0.05780679 0.06512102 -0.04950515 -0.07073656 0.05798288 -0.053314574 0.04563388
-0.035835095 0.08662506 0.021045933 -0.052269645 -0.09356262 -0.03546875 -0.053401504 0.11073922
-0.023283836 -0.03207621 0.14226373 0.07651473 0.07441532 0.03404601 -0.10028907 0.0626918
0.034894325 -0.060247146 -0.066154346 -0.04878445 0.030487062 0.04442122 -0.049569625 0.13121526
-0.042428095 0.030159824 -0.040333156 0.0251698 0.0629441 -0.05860664 0.081962235 0.02909816
0.04502426 0.03909233 -0.027088698 0.025235299 0.10014009 0.052166644 -0.049822036 -0.07157088
-0.026797025 0.03677958 -0.036611404 0.031525154 -0.046195406 0.09596474 -0.08826378 0.05093141
0.034327105 -0.0396381 -0.09237264 -0.05151642 0.029386487 0.03426003 -0.08713093 -0.12641238
-0.039025385 0.029796844 -0.10479051 0.055767212 0.031909157 -0.06238161 0.121443525 -0.051940348
-0.04206271 -0.05261303 -0.06729239 -0.029888382 -0.101752125 -0.06938081 -0.04679245 -0.07317658
-0.11341131 -0.132517 -0.13271713 0.045794934 0.16148905 0.03866906 0.0020425995 0.17118925
0.07003124 -0.0555156 -0.07187249 0.20195042 0.021657921 0.09963082 -0.04882251 0.100525185
0.02554355 -0.039345264 0.034206554 -0.029159354 -0.05175468 0.06764748 -0.046544693 -0.035996713
00000000: 15e5 983d da65 983d 6550 093d 7aed ee3c
00000010: 0e80 b63c eadc d83c 1116 17bd 30b0 f5bd
00000020: c494 aa3c 903e 02be 1d34 92bd 505f 1b3e
00000030: 23ba 9dbd ecec 3b3d 6142 573d 135b 013d
00000040: 28b7 2a3d 96fc 393d be40 3abd d766 3fbd
00000050: d337 3e3e cacb 1ebe 8497 053d 3ab3 933d
00000060: 3348 963d 3b8f 9c3d 6f6f 23bd ba5b af3d
00000070: 759b 52bd 897c ab3d 305c fa3c 2024 6a3d
00000080: 5c90 313d 21db 46bd 2e80 83bd d388 83bd
00000090: a2ff 32bd fc8a 613c 3209 973d 2e23 a3bd
000000a0: f19c ae3c b8ae 41bd 581f 4a3d 73c9 c63d
000000b0: fb17 68bd 6a03 87bd 1177 15bd 3194 6dbd
000000c0: 065b 53bd da1b e4bc 2f1e ed3c 48f6 9c3d
000000d0: 3917 403d 803d 1d3e b79e ef3d 3772 1f3d
000000e0: 8406 0dbd 3080 413d 35a0 60bd 7447 823d
000000f0: 7aec 95bd 7c84 efbd 58b1 113d c577 adbd
00000100: f65b 393d 958c 903c 2706 573d ae02 243d
00000110: b6ed 8a3d 99fd be3c 4073 15bd cad7 53bd
00000120: 82de 4a3d 39d5 20bd 2e59 5f3e 78f6 133d
00000130: 5f43 0c3d 4b49 633d a6b5 adbd 7e28 a0bd
00000140: 2faa 2ebd a3b5 553d d30f 05bd 542c 02bd
00000150: b4e1 7fbd 7c3b 9cbd fcf6 ebbd 55ca b43c
00000160: 24c3 9b3c 65fc 1fbd 02e3 8f3c 1498 0a3d
00000170: 6c6b c7bd 15c0 993d b36a 1abd ae37 e43d
00000180: 0f04 2f3d 3a9e d5bd 0d0c 7fbd 27c5 c4bd
00000190: aae8 093e bb80 a93c 204d c13d a022 c4bd
000001a0: b842 0abd b52d abbd e804 ab3d 7efb 593d
000001b0: 0544 ff3d d327 9b3d c238 6ebd 6d35 c9bc
000001c0: a3ad dd3c ae18 303e 2173 abbd cd19 c8bc
000001d0: e954 26bd f4fe 063d e7f8 a7bd 21be 39bd
000001e0: c763 81bd 6f8e 673d 44c3 38bd ceda b23d
000001f0: 7432 bf3c 937a df3c f29e e23d 8f05 8a3c
00000200: 7fb7 1f3d 5464 ddbc c245 033d a691 cf3d
00000210: f585 a8bd 6637 b03b 8875 1abd ed8a 82bd
00000220: 30eb 5cbd 6332 bd3d d7e9 df3c 4275 f43d
00000230: 3a80 f83c e087 a1bd b992 a13d dae9 1a3d
00000240: bf3b 60bd b88e e83d a377 163d 19ca 70bd
00000250: f8cd 49bd 3bd8 2e3d 1cb6 84bd ca4e 173d
00000260: 3295 f0bd d0c6 6c3d 2b5e 853d eac5 4abd
00000270: 54de 90bd 757f 6d3d 6260 5abd 97ea 3a3d
00000280: d2c7 12bd 7b68 b13d 8568 ac3c b218 56bd
00000290: c29d bfbd ae47 11bd 89bb 5abd 3fcb e23d
000002a0: bebd bebc 5862 03bd 95ad 113e c1b3 9c3d
000002b0: 0f67 983d d473 0b3d 5b64 cdbd 8f64 803d
000002c0: 5aed 0e3d b6c5 76bd ee7b 87bd 34d2 47bd
000002d0: 01c0 f93c 06f3 353d 8509 4bbd 4b5d 063e
000002e0: 15c9 2dbd bc11 f73c 6134 25bd e530 ce3c
000002f0: d6e8 803d 840d 70bd d1db a73d 445f ee3c
00000300: 5c6b 383d 471f 203d 1ee9 ddbc 42ba ce3c
00000310: 3f16 cd3d b1ac 553d 3112 4cbd c193 92bd
00000320: 6f85 dbbc 2fa6 163d d7f5 15bd 8520 013d
00000330: 6537 3dbd 2989 c43d a4c3 b4bd 749d 503d
00000340: 949a 0c3d 8f5b 22bd de2d bdbd e202 53bd
00000350: eebb f03c 3f54 0c3d b371 b2bd 3f72 01be
00000360: 15d9 1fbd 8318 f43c 689c d6bd 296c 643d
00000370: 2db3 023d dc83 7fbd 62b7 f83d 67bf 54bd
00000380: f349 2cbd c380 57bd 98d0 89bd 7bd8 f4bc
00000390: 6b63 d0bd 8717 8ebd 71a9 3fbd 9add 95bd
000003a0: 3044 e8bd 89b2 07be 00e7 07be 7893 3b3d
000003b0: 635d 253e 7363 1e3d 22dd 053b 3c4c 2f3e
000003c0: 8a6c 8f3d 5364 63bd e231 93bd 17cc 4e3e
000003d0: f46b b13c 3e0b cc3d 1dfa 47bd 26e0 cd3d
000003e0: b540 d13c 8028 21bd 2c1c 0c3d 99df eebc
000003f0: b7fc 53bd c38a 8a3d a6a5 3ebd 4a71 13bd

bn1.weight f4 [48]
0.18706815 0.27560532 0.10038888 0.022266768 0.4052621 0.17962958 0.14822537 0.21261732
0.1435378 -0.0070089153 0.2882359 0.22552499 0.0013694556 0.056809105 0.0068882783 0.0076736794
0.35024086 0.37588415 0.079168655 -0.00041340792 0.32984427 0.1297354 0.2509042 0.46341166
0.20389651 0.1921267 0.23739167 0.04457924 0.21673498 0.5393593 0.018760156 0.17677483
0.09116868 0.124986805 -0.0056947204 0.106786676 0.0028410216 0.10274417 0.25019524 0.11683026
0.3811573 0.33863673 0.29931593 0.23795891 0.86841464 0.77156806 -0.0016697685 0.1766993
00000000: cb8e 3f3e 241c 8d3e af98 cd3d cc68 b63c
00000010: 847e cf3e d1f0 373e 64c8 173e 5bb8 593e
00000020: 93fb 123e 0bab e5bb a893 933e 06f0 663e
00000030: 4e7f b33a aab0 683d 11b7 e13b 7d73 fb3b
00000040: c552 b33e e373 c03e 2d23 a23d acbe d8b9
00000050: 59e1 a83e 5bd9 043e 8476 803e 4b44 ed3e
00000060: 3fca 503e ddbc 443e cd16 733e b998 363d
00000070: c6ef 5d3e 7313 0a3f e6ae 993c 7604 353e
00000080: a5b6 ba3d 15f9 ff3d c79a babb f9b2 da3d
00000090: 6f30 3a3b 896b d23d 9719 803e b444 ef3d
000000a0: 0d27 c33e cb61 ad3e f03f 993e 80ab 733e
000000b0: 6c50 5e3f 7c85 453f 22dc daba a9f0 343e

bn1.bias f4 [48]
-0.014407102 -0.12076097 0.014168943 -0.012427116 -0.07622012 0.026974974 0.0508045 -0.02054615
0.009933984 -0.013433793 0.0260505 -0.06266258 -0.0017230337 0.0065824394 -0.0013164632 0.0028011806
0.11254454 -0.19677435 -0.004859079 0.0017956895 0.06586909 0.025217235 -0.09935776 -0.06258535
0.14705634 -0.09733896 0.027431602 -0.029413665 -0.018074896 -0.07005576 0.5105905 0.07620976
0.00950894 -0.09243283 0.0036263296 0.094972596 -0.005326829 -0.067000195 0.08336788 -0.006693731
0.06469366 -0.19219646 0.037653275 0.011418781 0.03737885 0.13736722 -0.0012735849 0.07109554
00000000: c40b 6cbc 8751 f7bd db24 683c 1a9b 4bbc
00000010: 4b19 9cbd 9ffa dc3c 6118 503d 6650 a8bc
00000020: 26c2 223c 6919 5cbc dc67 d53c 3d55 80bd
00000030: 6bd7 e1ba 81b1 d73b 2d8d acba 0394 373b
00000040: c07d e63d 377f 49be e938 9fbb 575d eb3a
00000050: 60e6 863d 6094 ce3c 157c cbbd bf2c 80bd
00000060: f095 163e a659 c7bd 3db8 e03c edf4 f0bc
00000070: ce11 94bc 6579 8fbd 0fb6 023f dd13 9c3d
00000080: 63cb 1b3c 6c4d bdbd b7a7 6d3b fe80 c23d
00000090: ae8c aebb 6637 89bd c7bc aa3d 1657 dbbb
000000a0: 1c7e 843d 26cf 44be 523a 1a3d d715 3b3c
000000b0: 911a 193d fea9 0c3e 6bee a6ba 8a9a 913d

bn1.running_mean f4 [48]
-4.8190885 -0.42387858 5.7028527 -0.0035487385 0.513055 3.7572541 5.7028527 -0.0035487385
-4.968462 -0.44017258 6.1520762 0.0927862 0.44976467 3.7616813 6.1520762 0.0927862
-5.114591 -0.4638303 6.57096 -0.008954563 0.38843253 3.7539303 6.57096 -0.008954563
-6.193451 -0.7013288 3.1094482 0.051088843 -0.513055 3.7572541 3.1094482 0.051088843
-6.4024725 -0.7181498 2.793678 0.10988033 -0.44976467 3.7616813 2.793678 0.10988033
-6.556719 -0.7472079 3.5546262 -0.0074061053 -0.38843253 3.7539303 3.5546262 -0.0074061053
00000000: f935 9ac0 9d06 d9be c57d b640 f491 68bb
00000010: 9357 033f da76 7040 c57d b640 f491 68bb
00000020: a4fd 9ec0 4d5e e1be cfdd c440 b106 be3d
00000030: 8e47 e63e 63bf 7040 cfdd c440 b106 be3d
00000040: bbaa a3c0 2a7b edbe 4e45 d240 29b6 12bc
00000050: a1e0 c63e 6540 7040 4e45 d240 29b6 12bc
00000060: c030 c6c0 498a 33bf 3301 4740 8942 513d
00000070: 9357 03bf da76 7040 3301 4740 8942 513d
00000080: 0ee1 ccc0 aad8 37bf 9fcb 3240 f008 e13d
00000090: 8e47 e6be 63bf 7040 9fcb 3240 f008 e13d
000000a0: a4d0 d1c0 0449 3fbf ff7e 6340 eaae f2bb
000000b0: a1e0 c6be 6540 7040 ff7e 6340 eaae f2bb

bn1.running_var f4 [48]
15.744677 1.0384132 498.2495 13.740694 31.954138 3.3128803 498.2495 13.740694
15.557495 1.035819 498.11783 14.662527 34.080723 3.416163 498.11783 14.662527
15.226897 1.0591247 508.44833 15.245911 36.563496 3.70034 508.44833 15.245911
16.02282 1.119887 399.5756 11.833148 31.954138 3.3128803 399.5756 11.833148
15.398258 1.1067959 408.02057 12.456639 34.080723 3.416163 408.02057 12.456639
14.806002 1.1157779 419.46747 13.066163 36.563496 3.70034 419.46747 13.066163
00000000: 32ea 7b41 b9ea 843f f01f f943 e2d9 5b41
00000010: 13a2 ff41 3b06 5440 f01f f943 e2d9 5b41
00000020: 80eb 7841 b895 843f 150f f943 b699 6a41
00000030: a952 0842 6aa2 5a40 150f f943 b699 6a41
00000040: 5fa1 7341 6691 873f 6339 fe43 40ef 7341
00000050: 0541 1242 5fd2 6c40 6339 fe43 40ef 7341
00000060: bc2e 8041 7558 8f3f adc9 c743 9354 3d41
00000070: 13a2 ff41 3b06 5440 adc9 c743 9354 3d41
00000080: 445f 7641 7dab 8d3f a202 cc43 654e 4741
00000090: a952 0842 6aa2 5a40 a202 cc43 654e 4741
000000a0: 62e5 6c41 cfd1 8e3f d6bb d143 010f 5141
000000b0: 0541 1242 5fd2 6c40 d6bb d143 010f 5141
