checkpoint_actor_0.pth (torch_old, 525473 bytes, 10 tensors)

fc1.weight f4 [400, 24]
00000000: 3f7a 073d 015e afbd 7b5c bebd 1401 9bbd
00000010: f06f eabc a76f b7be 4466 6dbd 3f0c 3cbe
00000020: 74ef 23b9 882c 563d af79 103e a3a6 99bc
00000030: 8a38 ffbd 2507 25be c03e 6fbd eaeb 84bd
00000040: c8b1 f7bc eefe 24bd efbc fcbd 8a93 10be
00000050: 800b 993d 631c 6dbe d6aa 6e3d cba8 0bbe
00000060: a055 2d3d 840a bfbd dc29 d6bc d915 f0bc
00000070: 1fc1 16be 0c80 31bd 645c b5bd b0ed 8f3d
00000080: 4c45 1b3d 2885 aabd 946b 77bd 0bd1 2dbd
00000090: 7998 73bd df84 4b3e fc2c 2ebe ccd4 783c
000000a0: 2e75 f1bd a97b 8fbb 4f79 ac3c 9804 6a3e
000000b0: 396c eabd 5d83 5e3e 81ec bebd a391 443d
000000c0: 73bf 23be 02dc 8ebd 61ec 30bd a76b fb3d
000000d0: 028e 243e 37e0 2d3d ebc0 b6bd 08f6 813d
000000e0: 461d 323d c458 7ebc d465 b73d 9695 ac3d
000000f0: 22cd a7bc 9116 d4bc a081 5cbd 4f0c 3a3d
00000100: e2dd 3abe e6be 1a3e e984 c2bd ec56 d7bd
00000110: 1841 78bd de05 23be 8783 55be ab59 b43d
00000120: 9056 33be 8c11 423e 9532 7b3c 3013 9a3d
00000130: 3b7d 823e 2c64 1f3a ae2b 8e3d 37d3 ccba
00000140: a543 493b 0fc0 be3d 72e6 4f3d c958 6dbc
00000150: e68a 543e f6ac 1f3e ce79 d33d 2181 533d
00000160: efc3 8a3d e7c0 373e aa1f b7bc c95f 45bd
00000170: d960 04bd 44dd b83e 9722 983d 92aa 04be
00000180: eaef 0bbe d13f 223d e7c3 c8bd 1e8a b23d
00000190: 8dfd 1b3e 3042 cbbd 0ca5 a2bc 75e4 113d
000001a0: 4287 16be e737 4f3d a97e fdbd 81b7 0a3d
000001b0: 1a66 223e 50f1 10be 8e46 d73b cbcd f23b
000001c0: 2707 1dbe f527 013e 5ddc ccbd ab82 9c3c
000001d0: 7366 763d c580 5ebe 6e4e 15be 5b4c 69bd
000001e0: ae55 e83c 567c c83d 1808 d3bd 47b7 d23d
000001f0: 49ef b63d 58de bfbc a77e 613d 6c46 20bd
00000200: 53cb 52bd 6740 223e aae2 183e 1e25 913d
00000210: 98a7 343e 60d0 2ebe c57e 0a3e 4bf7 603d
00000220: 23aa 85bc 39ad 033e 6993 8c3d 0595 96bc
00000230: 56ec 2b3e bd24 05be 8d66 b43d 8af5 13be
00000240: 524e 0b3e 5266 8d3d cea3 9a3c 135b 30be
00000250: 3a28 a13d d46d 7bbd 3ac6 8fbc 09e9 f1bc
00000260: 14c9 8f3d e6df 0a3b 1928 e5bd ecd7 08be
00000270: b1d4 98bd 1094 7dbc 98f2 10be 5d5d b6bc
00000280: 33b6 3ebe 457b 0abd 8f1c 97bd e7ea b9b9
00000290: 32bb 8bbb e856 e7bd 9790 47be ab99 a3bd
000002a0: 3dc6 e93c 7240 db3c c2c7 7fbe 0079 b63d
000002b0: 9480 79bd 700b 07be bac2 84bd 0f0d 1e3e
000002c0: eeb5 8f3d 346f 6dbd bd18 bebc 6fb8 92bc
000002d0: 8bfd c1bd 3e89 85bd 0967 46bd 898f 76bd
000002e0: ca5d bdbd eb75 37bd 800b d1bd a92e 66bd
000002f0: 60fc b6bc 4e3c 78be 308e efbc b245 05be
00000300: 5868 aebd 5e74 4cbd 274c b13d e978 d4bd
00000310: 0f72 fb3d 851a e03d edd9 263d d982 60bd
00000320: 1323 9e3d 7c14 9ebd 07b2 08be 8916 fdbc
00000330: e00f fc3d efb0 ac3d 7fc3 8c3c 58ba 8b3d
00000340: 0a80 d5bd f45e 33be 31ea 943a 5c01 a63d
00000350: 8f03 2f3e c653 013e b97d cfbd ae0b 453e
00000360: 0ee0 243e 1351 b93d c72d 823c 9b6a 6e3b
00000370: 440d ec3c ea69 85be fccd d4bc cab5 643c
00000380: 1ad9 ca3d 9485 d8bb 12ef 8b3c bccd 833c
00000390: f371 5b3c 4a6b 16be d153 00bd b2fd 25bd
000003a0: de44 87bc 25c1 2d3e 0283 e6bd af07 f93d
000003b0: 73d6 dd3d b2a7 ccbd cabf 863c 8201 3cbd
000003c0: 07cc cf3d 0c4c 123e 9007 513d 7991 f33c
000003d0: 3e0d c1bd b534 b5bd 21f0 42bd ed76 0b3d
000003e0: 3779 f4bd ff4b ed3d a892 28be ffc7 c6bd
000003f0: 20dc afbd 92e7 5e3d f075 edbd cb95 25bd
0.033075567 -0.08562852 -0.09294983 -0.07568565 -0.02861783 -0.3582737 -0.057958856 -0.18364047
-0.00015634095 0.052288562 0.14108919 -0.018756216 -0.12461956 -0.16116007 -0.058409452 -0.064903095
-0.03023614 -0.040282182 -0.12340724 -0.14118782 0.074728966 -0.2315536 0.05826839 -0.13638608
0.042317986 -0.093281776 -0.026143007 -0.029307293 -0.14722107 -0.043335006 -0.08855513 0.07027757
0.037907884 -0.08326179 -0.06040533 -0.042435687 -0.05947158 0.19874905 -0.17009348 0.0151874535
-0.117899284 -0.004378755 0.021053938 0.22853315 -0.11446423 0.21729799 -0.09322453 0.047990452
-0.15991001 -0.06975557 -0.04319418 0.122763924 0.16069797 0.042450156 -0.08923515 0.06345755
0.04348495 -0.015524093 0.08954969 0.08426969 -0.020483557 -0.025889667 -0.053834558 0.045421895
-0.18248704 0.15111884 -0.09498007 -0.10514626 -0.060608953 -0.15920207 -0.20850955 0.08806165
-0.1751349 0.18952006 0.015331884 0.07523191 0.25486168 0.00060802954 0.06941925 -0.0015626912
0.0030710485 0.09313976 0.05075688 -0.0144865 0.2075611 0.15593323 0.10325967 0.05163682
0.067756526 0.1794468 -0.022353966 -0.04818705 -0.032318924 0.36106312 0.074284725 -0.12955692
-0.13665739 0.03961164 -0.098029904 0.0871775 0.1523344 -0.09924734 -0.019854091 0.035618264
-0.14700034 0.050590422 -0.12377674 0.03386641 0.15859261 -0.14154553 0.00656969 0.0074097863
-0.1533476 0.12612899 -0.100029685 0.019105276 0.060156297 -0.21728809 -0.145807 -0.056957584
0.028361168 0.0978934 -0.10304278 0.10288864 0.08932359 -0.023421451 0.055052426 -0.03912966
-0.051463436 0.1584488 0.14930215 0.07087158 0.17642057 -0.17071676 0.13524921 0.054923337
-0.01631648 0.12859048 0.06864054 -0.018381605 0.16789374 -0.13002296 0.088086225 -0.14449134
0.13604096 0.06904282 0.018876936 -0.17222242 0.07869001 -0.061384037 -0.017550576 -0.029530065
0.070207745 0.0021190583 -0.11189289 -0.13363618 -0.07462443 -0.015477195 -0.14155042 -0.022261316
-0.18624191 -0.033808965 -0.07378494 -0.00035460966 -0.004264259 -0.11295873 -0.1948875 -0.07988294
0.02853691 0.026764128 -0.24978545 0.08909798 -0.060913637 -0.13187957 -0.06482454 0.15434669
0.07017122 -0.05796738 -0.023205156 -0.01791021 -0.094721876 -0.065203175 -0.048438106 -0.06019548
-0.092464045 -0.04479019 -0.102072716 -0.056196842 -0.022337139 -0.24241754 -0.029242605 -0.13014868
-0.08515996 -0.049915664 0.08657103 -0.10374624 0.12277614 0.10942558 0.040735174 -0.054812286
0.077215336 -0.07718751 -0.13349162 -0.030894535 0.123077154 0.08432185 0.017183064 0.068226516
-0.10424812 -0.1751669 0.0011361298 0.08105728 0.17091201 0.12629613 -0.101314016 0.19242737
0.16101095 0.09048667 0.015890969 0.003637946 0.02881492 -0.2605737 -0.025977127 0.0139593575
0.0990469 -0.0066077206 0.017081771 0.016089313 0.013393867 -0.14689365 -0.031329934 -0.040525146
-0.01651233 0.1696821 -0.112554565 0.12159669 0.108319186 -0.09992923 0.016448874 -0.045899875
0.10146337 0.14286822 0.051032603 0.029732453 -0.09426354 -0.08847944 -0.047592286 0.034048963
-0.119371824 0.11586761 -0.16462195 -0.09706115 -0.085869074 0.05442006 -0.115947604 -0.040426057

fc1.bias f4 [400]
00000000: f356 533b dd53 573d c79c fb3b 476a 873d
00000010: 40e5 65bc 4196 823d f8e9 9f3c b61c 8b3c
00000020: b17a 933d 45dc 343d 5c09 f63c cd89 0e3c
00000030: ba32 aa3d 570a d53d 49aa 7c3c 6234 3e3d
00000040: 0ae5 ee3c ef7d ff3c b35f 3cbc f6a7 5bbb
00000050: cad8 be3d a508 af3d 600f 82bc 8925 4d3d
00000060: 1bcb 153d 8bab 2f3d 9f28 873d 69d7 933d
00000070: 1b36 1f3d 8729 aabc 5320 82bc 6955 213d
00000080: f7b3 933d 6c08 a0bc 365f f13b dd0a 863c
00000090: a2a0 4bbb bc9e 86bc 1b8e 8e3b 8a3e 46bc
000000a0: 65fa 85bc 2bba 8dbc eb43 ca3a 98f8 043d
000000b0: e85b d23b 88c6 023d 99e7 2ebd c80f c4bc
000000c0: a618 d5b9 9de7 ca3c d3c1 803d 0b63 803d
000000d0: 0dc0 68ba 6d83 163b 0293 f83b 9355 a4bb
000000e0: 1533 823d ddc4 72bc 9cfd c7bd 3317 443d
000000f0: 8b76 b13c bbc8 403c 6d39 c63d af4c bcbd
00000100: e8fa 9d3c bc90 bcbc 44d5 70bb f40b 17bd
00000110: c273 44bd 1607 f83c 3687 ac3d 7c8e 03bc
00000120: 5933 e73c 143a df3c 1188 863d 358d 1a3d
00000130: 9b89 2e3c 7f2c 403d 877f 373d 3020 e7bc
00000140: 468f 9cbc 6a95 15bd 92f3 a03d 12fd da3b
00000150: 90ac 2b3d abcb 083d 96e8 3cbd 6f97 413d
00000160: 7db9 9a3d 398e 6abd 2d5c cf3a 7b0c 36bc
00000170: f4f8 2b3d fcc8 a03c 2ca7 4f3d cd9e efbc
00000180: ac1e 773c 8e99 7b3d 13a6 093d 8b21 ae3d
00000190: 073d 133b fdff f13d e838 ab3d 8a4c 7f3d
000001a0: d909 573b adf4 ea3c 1152 5b3c efe0 653d
000001b0: 4453 993c 489a 343d 11d7 553c f380 a53d
000001c0: aba8 ebbc e70e 403d 84ab f83c 5a9c 9e3d
000001d0: 9807 1a3c 363e c93c 924b 85bd a171 233c
000001e0: f73d c8bc 15ed 8bbd c9ab 43bc 2904 623d
000001f0: e07f 0cbc 7896 9c3d 9a82 203d c4d2 90bd
00000200: 61ba 303c 1726 6b3d cff8 d03b 1647 3c3d
00000210: 4d2f d73a e129 89bd 2235 81bd ad9b d83c
00000220: 1bff 1b3d ba48 2abd 939f 803d 82f7 1dbd
00000230: 22ed 72bd 0e90 7bbc 929d 20bd 6e68 bb3d
00000240: 5722 8fbd 004c 373b 67a1 0fbd 2b77 c23c
00000250: 8eb8 df3b 41fc febb 21c5 183d 78c3 013c
00000260: b376 bc3c fa1c 3c3d c22a a93c 1424 253d
00000270: 118f 183c 215a 7c3d 1b82 103d 40ed 45bd
00000280: bb66 abbc c9b1 6b3d e3f5 0e3d 4954 ccbc
00000290: 00f7 b33c 39cb 303d 4d94 163d e85e 8d3d
000002a0: 6c10 803b feb9 e23b 02ed 9e3d 2146 1d3d
000002b0: 0320 9bbd bff1 083c 5b3b 9c3c 1ec0 75bc
000002c0: 3466 6f3d d2ed 93bd 1a48 45bc 6039 383b
000002d0: 7bc0 b4bc 35c6 9b3c 740a 923c 3588 663c
000002e0: 27d2 023d d8f1 b53b b933 0dbd 5ded 9a3c
000002f0: 23b9 f13c 3f8b 633d 7740 d83c 53f3 773d
00000300: 6134 c73b 080a c3bc 5cab e1bb c587 c83c
00000310: 19c3 c1bd 1263 4c3c 116d 3d3d c4c8 973d
00000320: eef2 ddbb 0d9e c3bc ed5f 993d bde0 ba3c
00000330: 9738 483d c157 f83c 8269 683d 289c 4a3c
00000340: b8ad 823d dfa9 ef3a e71e 10bd a259 9b3c
00000350: 9751 3c3d 8132 193c cc3f 133d fffa 533d
00000360: 7bed 673d d1a2 273c d814 1d3c f94d 803c
00000370: 8858 823b 8c11 aa3d 9b9d bc3d 952f 523d
00000380: e45b 053d 9a6f 0f3d 1475 aa3c daa1 ac3c
00000390: 609d 97bd e76b f93d 086b 25bd 1659 ea3c
000003a0: 6e4d 883d c39f 4c3d 4148 02bd e63d 283d
000003b0: f9b8 cf3c aed6 013d 5291 b53d 3277 d4bc
000003c0: 0203 ef3c d895 4b3c 4aa2 263d 2f40 7e3d
000003d0: fd63 173d 4fe2 953d 3177 fabc a663 463c
000003e0: 6c57 ba3c a58f 1e3d 7aba 983d f46a 6fbb
000003f0: 7bf2 35bd c79b 77bd e046 03bc 3ddc 603c
0.003224787 0.052570213 0.0076786014 0.06612068 -0.014031708 0.06376315 0.019520745 0.016981464
0.07201136 0.044155378 0.03003376 0.008699846 0.083104566 0.10402363 0.0154214585 0.046436675
0.029161949 0.03118798 -0.011497426 -0.003351686 0.09318693 0.08546571 -0.015876472 0.050084624
0.03657065 0.042888205 0.06599545 0.072188206 0.03886996 -0.020771755 -0.015884554 0.039388094
0.0721206 -0.019535266 0.0073660864 0.016362602 -0.0031071086 -0.016433112 0.0043504364 -0.012099871
-0.016354749 -0.017300686 0.0015431618 0.03246364 0.0064196475 0.031927615 -0.042701337 -0.023933306
-0.0004064489 0.024768645 0.06286969 0.06268891 -0.00088787155 0.002296652 0.007585884 -0.005015084
0.063573994 -0.014817444 -0.09765169 0.047873687 0.021662971 0.011766608 0.09678922 -0.09194314
0.01928468 -0.023018233 -0.003674821 -0.036876634 -0.047961958 0.030276816 0.08424227 -0.008029576
0.028222727 0.027249373 0.06568921 0.03773232 0.010652925 0.046917435 0.044799354 -0.02821359
-0.019111287 -0.036519445 0.07858957 0.0066830004 0.041912615 0.033397358 -0.04612025 0.04726356
0.0755491 -0.05726454 0.0015820317 -0.011111374 0.041985467 0.019627087 0.050696537 -0.029250527
0.015082996 0.061425738 0.033605646 0.085024916 0.0022466795 0.11816404 0.083604634 0.062328853
0.0032812266 0.028681124 0.013386265 0.056122717 0.018716462 0.044092447 0.013051764 0.08081236
-0.02876695 0.046889212 0.030355223 0.077446654 0.009401225 0.024565797 -0.065085545 0.009975822
-0.02444361 -0.06832329 -0.011942812 0.05517975 -0.00857541 0.07645887 0.03918705 -0.0707145
0.010786624 0.057409372 0.0063773165 0.04596623 0.0016417295 -0.06697441 -0.063089624 0.02644142
0.038085084 -0.041573264 0.06280436 -0.03856612 -0.05930818 -0.0153541695 -0.03921277 0.09150778
-0.06988972 0.0027968884 -0.035066035 0.023738464 0.0068274206 -0.007781536 0.03729737 0.007920139
0.023005819 0.04592607 0.020650271 0.04031761 0.009311453 0.06160939 0.03528033 -0.048321962
-0.02092301 0.057542596 0.034902465 -0.024942534 0.021968365 0.04316256 0.036762524 0.069028676
0.0039082076 0.0069191447 0.077600494 0.03839696 -0.07574465 0.008358418 0.019071272 -0.014999418
0.058447078 -0.07223095 -0.012041116 0.002811037 -0.022064438 0.01901541 0.01782725 0.01407056
0.0319387 0.0055525117 -0.034473155 0.018912012 0.029507225 0.055552717 0.026397927 0.060534786
0.006079242 -0.023808494 -0.0068868827 0.024478802 -0.0946104 0.012474792 0.046246592 0.0741134
-0.0067733442 -0.023879075 0.074889995 0.022812242 0.048882093 0.030315282 0.056741245 0.012366332
0.063807905 0.0018284878 -0.03518572 0.018963639 0.045976248 0.00935042 0.035949513 0.05175304
0.056622963 0.01023169 0.009587489 0.01566218 0.003977839 0.08304128 0.09209748 0.05131491
0.032558337 0.03501854 0.02080778 0.02107327 -0.07403064 0.12178784 -0.040385276 0.028606933
0.066553935 0.04995705 -0.031807188 0.041074656 0.025356757 0.031698875 0.08865608 -0.025935743
0.029176239 0.012425862 0.040682115 0.06207293 0.03696059 0.073185556 -0.030574413 0.012108719
0.022746764 0.03871121 0.074574426 -0.0036532255 -0.0444207 -0.060451295 -0.008012503 0.013724384

fc2.weight f4 [300, 400]
00000000: 9155 5b3d e5a0 103d f6f8 583d 4bd5 21be
00000010: 7c7e 133a f240 c9bd bb7c 08bd 7237 b03d
00000020: 9552 a0bc 97f7 0bbe 25ba 523c 27b8 a63c
00000030: fbd9 283d 023a fd3b d053 173d a6c3 b7bd
00000040: 325f 843d 63ae 9abd b70a a83b 13a8 4d3c
00000050: 0634 f2bd bb01 88bd 9f3b 44bd d926 683d
00000060: e9af 3a3d 0c7e 973d 604a 80bd 9ac5 96bd
00000070: 72e8 b53d 41f5 09bd 5230 003e d036 f5bc
00000080: eb66 d23d 36c6 a53d f53f 3abd c0a2 38bd
00000090: 46ea a1bd a77c e43d 3025 d03b 7d8a a83d
000000a0: 9513 b1bb bbc9 743d 15e2 3c3e ee2c 0e3d
000000b0: 272d 43be d5c4 803d 1c41 a5bc 37fe 323d
000000c0: 0d12 113d 8c46 9a3c f445 c93b d80e 823d
000000d0: 4a73 42bd f2fe 8f3d 628f 123d 0302 b13c
000000e0: d197 cebc bd19 e33c 630a da3d 091c 9dbd
000000f0: 65d5 d73d b9b7 6f3d edaa c6bd ade7 9abd
00000100: b7f3 983b cdea 0cbd 3346 50bd 910c e33c
00000110: 2d16 4d3e 1f98 b43d 39bf 183c 1448 4b3d
00000120: 0b6b a6bd c90a 993d fc1e f1bd da6d e0bd
00000130: cb2a 10bd 8f23 47bc a473 2ebc 379f 4c3d
00000140: bb0c 54bb 8e5c c7bd 680a 30bc d155 9f3c
00000150: 9f72 d93d a0cb cbbd 5a37 733d a07f 403d
00000160: 19a2 d73c 97b9 d33d 8153 173d 00a9 7fbd
00000170: 80da 383d 0486 88bc bf19 cfbd 480f 1bbe
00000180: 539c 8d3c bde7 2a3c b0ad ac3c e6bf 8f3b
00000190: ce16 ad3d ad53 8fbd ffd9 303d dc1d 1c3c
000001a0: 9c21 cc3d 84f4 35bc 0f03 273e 6a32 9b3d
000001b0: 7425 c83c e9e6 e9bc 9afc 2d3c da14 21be
000001c0: 9623 493c 54e0 9d3d 9238 f4bc 758f 36bb
000001d0: 772f fa3b 7677 0ebc 0e98 d43c 84ad cf3d
000001e0: 1270 22bd 28f0 103d 96ce 91bd 6290 8c3d
000001f0: 9ade 7e3d 77a2 a13c 2af2 63bb 62e3 733d
00000200: 79be 8ebc 692b 8bbd e45c 34bd c091 523d
00000210: 866e 20bc 8d49 b33d 087c 8e3d 777f babc
00000220: e592 b2bc 03ce 18be 37c8 0b3e 0df1 85bc
00000230: c290 c9bb 9a07 11bd 2374 a53d 9c4f 02bd
00000240: 4ba0 91ba e571 453d 371e 49bc d67c 273c
00000250: add4 683c ab92 ecbd 8fdb 52bb c1ae 22be
00000260: eb36 93bd ae20 683b 11a7 19bc 1d3c 283d
00000270: 8943 bdbb cdfd 833d 995a 793d 61d3 c8bd
00000280: 5b68 49ba 4e56 e23d f872 f33d 611c 78bd
00000290: b870 693d e3a4 f4bc 128a d13d dc5f 123e
000002a0: d456 5c3c d1a1 ac3d 506a d8bb 61bb 9a3d
000002b0: e251 913d 2ba2 873d c2a4 79bd 4a87 ceba
000002c0: 53ef 9dbc 2cce 07be 1f7b 653d 2727 a53b
000002d0: 8340 40bd f38e 1cbe 6b6e 903d 6a0f 0dbd
000002e0: f4b0 f1bb 2deb ce3c 4ce9 29bc 73de 843d
000002f0: bb56 c23d 49f4 0b3d c57b f53d 575f 553b
00000300: bbd1 943b 89c3 d6bd bfe4 0bbd e48d 103d
00000310: 8e40 dfbc 9a12 5e3c 3983 713d 7627 53bd
00000320: 79b5 dc3d d707 99bd a946 68bd 273a 0f3a
00000330: 056a 333d ac13 1dbd 5bc2 6d3d b646 183d
00000340: ad95 11be 01f6 f83d 8322 9e3d b3b2 a23d
00000350: b547 a6bd dedb c5ba 4bf0 cc3c 675e c5bc
00000360: cc6d 62bd ffcf 863a ce4d 013e c485 c83d
00000370: ff4f a7bd c728 b4bd f996 df3c 9276 8ebd
00000380: ca83 1fbe 6e62 00bd d3a5 96bd e48f 603d
00000390: ce94 e03d 066e 8d3d 28ed c23c 4a16 813a
000003a0: b0a4 523c 7ed8 573d f426 7d3d 8ad9 2abe
000003b0: f627 993d b09d 4d3d 2567 96bd 9f37 35bc
000003c0: f4d6 69bd f76e 09bd a583 a6bc 68d4 053e
000003d0: 6321 23bd 23e6 a8bd b323 f73d cb28 0f3e
000003e0: 09fa 243d 252e db3b cabb 803d 8643 ac3d
000003f0: d732 87bd 45b8 8abd 8e80 9e3d 5075 943d
0.0535484 0.03530969 0.052971803 -0.15804021 0.00056264526 -0.098268405 -0.033322077 0.08604325
-0.019570628 -0.13668667 0.012861763 0.020351483 0.041223507 0.0077278623 0.036945164 -0.08972864
0.064634696 -0.07552793 0.0051282304 0.012552279 -0.11826329 -0.06640955 -0.04790842 0.056677673
0.045577917 0.073970884 -0.06264186 -0.07361908 0.08882226 -0.033681158 0.12518433 -0.029933363
0.10273536 0.08094446 -0.04547115 -0.045077085 -0.07906012 0.11156588 0.0063520893 0.082295395
-0.0054039457 0.059762698 0.18445618 0.034710817 -0.19060193 0.06287543 -0.020172648 0.04369947
0.035417605 0.018832467 0.0061423723 0.063504875 -0.04747323 0.07031049 0.03578127 0.021607405
-0.025218876 0.027722234 0.10646512 -0.07671363 0.10538749 0.05852482 -0.0970057 -0.0756372
0.004667725 -0.03440361 -0.050848197 0.027715953 0.2002799 0.08818077 0.009322935 0.049629286
-0.081258856 0.0747276 -0.11773488 -0.109584525 -0.03519706 -0.012154474 -0.010647688 0.049956527
-0.003235622 -0.0973445 -0.010744669 0.0194501 0.10617565 -0.09950948 0.05937896 0.046996713
0.026322411 0.10338133 0.03694487 -0.06241703 0.045130253 -0.016665466 -0.101123326 -0.15142548
0.017286455 0.010431227 0.021078914 0.0043868897 0.08451615 -0.06998382 0.043176647 0.009528603
0.09967348 -0.01110566 0.1630976 0.07577975 0.024431922 -0.02855249 0.010619307 -0.1573061
0.012276551 0.07708803 -0.029812131 -0.0027856503 0.007635053 -0.008695474 0.025951412 0.10140517
-0.03965766 0.03538528 -0.07119481 0.06863476 0.06222401 0.01973079 -0.0034781792 0.05954302
-0.017424809 -0.06795389 -0.0440339 0.05140853 -0.009791976 0.08754263 0.06957251 -0.022765858
-0.02179856 -0.14922337 0.13650595 -0.016350294 -0.0061512897 -0.03540764 0.08078792 -0.031814203
-0.0011110393 0.04820432 -0.01227527 0.010222634 0.014210862 -0.11551412 -0.0032174324 -0.15886976
-0.07188209 0.003541987 -0.009378211 0.041072953 -0.005775873 0.06444893 0.060877416 -0.09805942
-0.00076830917 0.110516176 0.11887163 -0.06057394 0.056992263 -0.02986378 0.10231413 0.1429438
0.013448436 0.084293015 -0.0066044703 0.07555271 0.07095696 0.06622728 -0.06094814 -0.0015756872
-0.019279158 -0.13262242 0.05602562 0.0050400677 -0.046936523 -0.15288906 0.070523106 -0.034438528
-0.007375831 0.025258625 -0.010370564 0.06487741 0.09489199 0.034168515 0.11986498 0.0032558048
0.0045416034 -0.10486514 -0.034153696 0.035291567 -0.027252462 0.01355424 0.058963034 -0.051551305
0.10776801 -0.074721985 -0.05670801 0.00054636825 0.04380228 -0.03834884 0.05804668 0.03717681
-0.14217253 0.121562965 0.07721426 0.079442404 -0.08119146 -0.0015095433 0.025016924 -0.024092866
-0.05528049 0.0010285376 0.12627336 0.09791139 -0.08169555 -0.0879684 0.027293669 -0.06956209
-0.15577617 -0.03134387 -0.07355847 0.054824725 0.10965882 0.06905751 0.023794726 0.0009848562
0.012856647 0.052696697 0.061804727 -0.16684547 0.07478325 0.05019921 -0.07343892 -0.011060624
-0.05708976 -0.03355309 -0.020326445 0.13069308 -0.039826762 -0.0824702 0.12067356 0.13980405
0.040277515 0.0066888505 0.06285818 0.084113166 -0.06601494 -0.06773428 0.077393636 0.07248938

fc2.bias f4 [300]
00000000: eb07 c43b 59ac 393c 4421 4a3c 7800 083d
00000010: 56c4 013d fb39 8d3b 6e70 fe3c 8d45 7dbb
00000020: d189 963b 140f f13c b9b6 ea3c 9fde 843c
00000030: 132c 233d e147 543d 6ac2 1c3d 7bc1 903b
00000040: d8f1 363d b0e2 10bc 4436 083d 8555 883b
00000050: f003 1a3c 5a17 4b3c 5338 643c 3e4c 4f3d
00000060: 82fd cc3c 7d9e 7d3c fe55 ef3c 0c5b 4e3c
00000070: 28ff 92bc 1f91 ff3b 4bae cb3c 2556 253c
00000080: 0e38 81bc f59e 623c 6517 ba3c 63da 85ba
00000090: 567d a23c 42e2 fb3c e18f f63c 2ecb 043d
000000a0: 81fb 033d 9966 013d 51cd 323d 19a5 073c
000000b0: 0c7a 153a c7b0 ca3c 73e9 943c c12d d73c
000000c0: 0ce7 ec3c 1bc4 aaba 4145 df3b 61be 333b
000000d0: 9ce9 f93c aef8 2b3c 5cd6 0e3d b8f4 15bd
000000e0: 8d20 293c e068 12bc 4a45 b63b 92ba 543c
000000f0: eef3 9c3b 90e0 233c 196c 1a3d 520e 283d
00000100: 9d89 083a 1bbb df3a 1396 c3bc 9726 3c3c
00000110: 7fc9 4ebc f8e5 1f3c 39ba 183c dbd0 703c
00000120: c4f8 a3bb c8ed 2b3d 7bd2 d33b 9aae 2b3c
00000130: 0e31 a83c b57f f73c 3e30 013d 130a db3c
00000140: 8932 f63c 625e 653d 2621 233d d2e4 a0bb
00000150: af63 bd3c 10f7 53bb 3b83 eebb 2344 6b3b
00000160: 3b9d 20bb aa54 e83c 232e 0dbb 4bf2 813c
00000170: 1e80 1d3d 03f9 27bc e61b 223c f037 c93c
00000180: 064a 153c 615a 113c 0a5a 463c ada3 11bc
00000190: 0e20 63bc 7ccf ad3c 71ae c83c 2fc7 f93c
000001a0: 66fe 943c 1264 c23c c7d9 7ebc 03ce 033d
000001b0: 0f9c 4c3d 3057 253d b9ab a13c 6fc5 873c
000001c0: 59dd 693d fa07 c63c d411 3dbb b7d0 883b
000001d0: 5a3a 8fb9 f0ba 0d3b 02e0 523d 8467 a93c
000001e0: a512 013d e552 db3a d9e6 a53c 9037 653c
000001f0: f280 aeba 78a8 bc3b 5d57 42bb dc06 a83b
00000200: 278d 0a3d 6d95 2e3d ffb2 df3c 3a10 083d
00000210: 4949 073d b748 073d ae41 073d c50c a53c
00000220: 650c 12ba a7e3 243d 63c8 503c 338c da3c
00000230: aadb b7bb 54e4 cc3c 06ef b63c 599c ad3c
00000240: 3c71 093d 1d51 fb3b 0e2b a5b7 33ba c23c
00000250: de5f 9f3c ec8c 1e3d 1ca6 443d 9da3 c03a
00000260: dd56 003c 8748 81bc 2785 663c 250b 65bb
00000270: b063 d83c 2b03 ee3c 6f2a 793d 3f85 47bb
00000280: af59 ad3c 4e7a 303d 3234 843c cb9c 86ba
00000290: b903 273c ba02 913c cf02 5d3d 1a93 e3ba
000002a0: 79d1 223d 6d88 f5bb 9dd3 003d 0a45 413c
000002b0: 7563 033d 1521 0bbc 6a94 4c3d af53 493d
000002c0: e338 b63b f812 f2bb 6b0a 8d3c 3591 1b3d
000002d0: 9d20 173c 7a83 1f3d e8aa 3b3b 842c 013d
000002e0: 6ecb 70bc 3a0a b73c 3a56 a7bb 1ba1 6bbb
000002f0: 1be8 943c 5d86 0b3d 66f6 013c b38c 323b
00000300: a166 2cbb 2d25 f23b d531 513c f8cc b3bb
00000310: c83c 9b3c fcee ffbb 1cc8 eb3b 8b71 1bbc
00000320: 6437 383c 13eb 863c 1f36 273d 8f28 443c
00000330: 9f05 493d 5f7c d8bb c1b6 1abc 938a d73c
00000340: ef82 1d3d b944 453c dbe0 6bbc 6032 bb3c
00000350: 1c7f abb9 2a73 89bb 4025 6fbb 4567 2d3d
00000360: 08ea 6abc 1f03 1d3c d36b 8c3c 45aa 5f3d
00000370: f40f 003d 6213 573d d73d 483d 7252 eebb
00000380: c83c 703b 2353 5a3c 8aa4 4d3d b301 293a
00000390: aa87 69bc 729b 08bc 3d70 f13c ee0c 0c3c
000003a0: a7d5 c33c 3ece bb3c c34f 12bc 301e 8d3c
000003b0: b4b2 133c 103a 593c 02f3 553c c458 383a
000003c0: 7bbc bbbb e23c b03b 7f27 cd3b 0379 e23c
000003d0: 006a 113d f64c b0bb a81a 283d a12a 823c
000003e0: 7474 e2b9 5341 033d c232 ce3c 3cc4 203c
000003f0: 408e 0f3d 0846 183d dc01 16bc a57e 8d3b
0.005982389 0.011332595 0.012337033 0.033203572 0.03168138 0.0043098903 0.03105947 -0.0038646192
0.0045940657 0.029426135 0.028651582 0.016219435 0.039836954 0.05182636 0.038271345 0.004417596
0.044664234 -0.008843109 0.033254877 0.0041605853 0.009400353 0.012395704 0.013929444 0.05060982
0.025023226 0.015479681 0.029215809 0.012594949 -0.017943934 0.007799282 0.024863383 0.010091339
-0.0157738 0.013831844 0.022716234 -0.0010212179 0.019835155 0.030747537 0.030097904 0.03242033
0.032222275 0.031591985 0.043652836 0.008279108 0.00057020853 0.024742497 0.018177724 0.026266934
0.028918765 -0.0013028415 0.0068136756 0.0027426707 0.030506901 0.010496302 0.034872398 -0.036610335
0.010322702 -0.008936137 0.005562459 0.012983935 0.004789821 0.01000227 0.037700746 0.041029282
0.0005208494 0.0017069312 -0.023875272 0.01148381 -0.012621283 0.009759419 0.009321743 0.0146982325
-0.0050040204 0.041974813 0.0064643 0.01047864 0.020531204 0.030212263 0.031540148 0.026738202
0.030053394 0.055998214 0.039826535 -0.00491009 0.023118822 -0.0032343306 -0.0072788275 0.0035898767
-0.002450778 0.028360683 -0.0021542392 0.015862605 0.03845226 -0.01025224 0.009894347 0.024562806
0.009111887 0.008871646 0.012106428 -0.008889121 -0.013862623 0.0212171 0.024497243 0.030490486
0.018187713 0.023729358 -0.015554852 0.03217889 0.049953517 0.04036635 0.019735204 0.016573636
0.05709586 0.024173725 -0.0028849738 0.0041752714 -0.0002731856 0.0021626316 0.05148316 0.020679243
0.03151192 0.0016733079 0.020251678 0.013990298 -0.0013313575 0.0057573877 -0.0029654123 0.005127771
0.03382602 0.042622972 0.027307032 0.0332186 0.033028875 0.03302833 0.03302162 0.02014769
-0.0005571305 0.04025617 0.012743088 0.02667818 -0.005610903 0.02501122 0.022330772 0.021192716
0.033555254 0.0076695816 -1.9689582e-05 0.023770427 0.019454893 0.038708612 0.048009977 0.0014697198
0.00783321 -0.015781654 0.014069832 -0.003494927 0.026414722 0.029054245 0.060831483 -0.003044441
0.021160929 0.04308539 0.01613817 -0.0010270117 0.010193759 0.017701495 0.053957757 -0.0017362565
0.03975055 -0.00749307 0.03145181 0.011796245 0.03207727 -0.008491774 0.049946226 0.049152073
0.0055609806 -0.007387515 0.017216882 0.037980277 0.009224084 0.038943745 0.0028635804 0.031536594
-0.014696939 0.022343744 -0.0051067146 -0.003595418 0.018177083 0.034063686 0.007932281 0.0027244508
-0.0026306289 0.0073896856 0.012768229 -0.0054870807 0.018949881 -0.0078104716 0.0071954858 -0.00948752
0.011243675 0.016469514 0.0408231 0.011972561 0.049077626 -0.006606623 -0.009442986 0.026311195
0.038454946 0.012040311 -0.014396871 0.02285117 -0.00032710365 -0.004194637 -0.0036490709 0.042334814
-0.014338024 0.009583264 0.017141258 0.05460574 0.031265214 0.05250872 0.0488871 -0.007273012
0.0036657322 0.013325485 0.050205745 0.00064470916 -0.014253536 -0.008337842 0.029472465 0.008548005
0.023905588 0.022925492 -0.0089301495 0.017226309 0.009014774 0.013258472 0.013058426 0.000703227
-0.0057292557 0.0053783515 0.006260812 0.027645594 0.03550148 -0.005380268 0.041041046 0.015889468
-0.00043192843 0.03204472 0.025170688 0.009812411 0.03504777 0.037176162 -0.009155717 0.0043180757

output.weight f4 [2, 300]
00000000: ca27 3e3d d4b5 0a3e abb8 243e c7bb 5fbe
00000010: 241a 06be 2a27 79be 2743 97be b1ce b6bd
00000020: 59be 873c 90ba 3f3e 29a9 b73d edaa 2e3e
00000030: 10bc 27be 53cf b93d 60de 793e a195 2a3e
00000040: 122d d4bd 6f6e dbbe 85a7 cabe f9bb d4bc
00000050: 5c59 f63d 20dc 89be bf95 643c 08fd bebe
00000060: 4da7 543e d5dc f43d 63ad c63c a78c 013e
00000070: cb7b 90be 48bf ea3d 1d4e 29be f78e 85bd
00000080: 140b c8be 71d6 083e 260d 963d 8736 f3be
00000090: 56c9 0a3e 6471 47be 2f7a a6be f969 333e
000000a0: 3c09 07be 5073 30be 0fd4 62be 7778 223e
000000b0: 7d60 0dbb 51af cfbd d3ba f5be c193 98be
000000c0: 9e4a 53be d915 7cbe f46c 833e 018f 6d3e
000000d0: 7891 49be 98ce 473e 938c acbc 4f43 8abe
000000e0: 9b26 213e b356 6e3e 7846 853e 4732 423e
000000f0: 2586 b2bd 9817 293e c257 8ebe 6b25 6bbe
00000100: 7341 fc3d 1807 7cbe 1bc3 273f e156 17be
00000110: 2212 af3d 33d0 3e3e 2d57 a33e b976 063e
00000120: 8f17 39bd d960 33be 90c3 433e f8d1 66be
00000130: 0c13 fa3d a589 97be f4bf b8be 5a56 cdbd
00000140: 0271 81be 1750 043e f7d7 72be 841f b23c
00000150: 6ba1 31be 0e2a bebe 1b09 bc3e c150 553e
00000160: e191 5a3e 5c86 14be ae76 d73d 1ea7 a23d
00000170: 5940 72be 199e 893e 9a11 60bd 9012 cf3d
00000180: 9854 1b3d a166 8a3e 46bc fa3d 9358 e83d
00000190: ff68 eb3d 2e2a ec3d 7cc6 fb3d da34 34be
000001a0: e605 5e3d 85c2 b0be 89a7 af3e cd43 a9bd
000001b0: cccf 833e ccbc 33be 28f4 c93d f8f2 0e3e
000001c0: b148 c9be 4c04 6fbe 907d 303e 1b7c 263c
000001d0: 83ca 08be 14fd a43b 8792 92bd 1029 37be
000001e0: 7499 073e 0ab4 103e 1103 3b3e 0d56 9b3d
000001f0: 5899 023e 47ac 383e fe68 a7be 258e c0bc
00000200: 7bf4 c7bd fa76 adbe 37ce b2be f97c 183e
00000210: 3087 bbbd 2c8c 0c3c 8bdd 9bbe a785 e5be
00000220: b526 83bd d7b6 92be 72af 153e 6c2f 44be
00000230: 8742 883c 09cc 3c3e 0d68 1c3e f27d 67be
00000240: 651b 823d 1c63 e43d 8715 593e ed36 f93d
00000250: 12f2 d0bd 4c54 5dbe 6283 d5bd d1df 8fbd
00000260: e8a9 c9bd 4839 da3e 167c aabe eec7 2c3e
00000270: 8715 963e 8096 2ebe bcdc 9fbd cbfa 9dbe
00000280: 459e 363d 23d9 95be ca81 c1be e3a9 093d
00000290: d4fe 8ebe 0abe 6bbe fb7e a4be dca5 c1be
000002a0: 245f d13c 3e1e 4c3e d683 813e 5705 bebe
000002b0: a985 20be 7128 983e cd74 8e3d 433c 99be
000002c0: 2173 4a3e 5d40 4cbe 2d6e 553e 2cf7 7ebe
000002d0: 3406 843d 7c1c 303e 7cc7 093d e8db a0bd
000002e0: ebd6 fd3d 092b 62be 7fb4 963d e255 ec3d
000002f0: 7ddc 35be 0950 aebe 09f2 12be 62c4 54be
00000300: a979 a43c 0bae 03bf bb1d 8dbd 5dd0 64bc
00000310: 3339 e73d 1a4f 4ebe 4e08 853e 0ddb 6cbe
00000320: 8e6d 013e 1df2 c13d fe7c 07be d641 9cbe
00000330: c622 acbe f45f dcbe 6edc 7dbd 0662 4d3e
00000340: 9b25 2d3d c1d0 44be 0925 953e 6473 0d3e
00000350: 5475 b2be 48ba b0bc 2455 3ebe 883e 24be
00000360: 1d7a d2be 9b0a 6ebe 9cfb 89be b553 98be
00000370: 08dc b8be bc02 30be 1d87 84be 6502 05be
00000380: 97bb 51bd 8b9c a1be 16af 3f3e bc41 ae3e
00000390: 7258 cdbe 984f f93d ffaf 5ebe 90d8 2f3e
000003a0: 649b 6dbe fc40 2d3e 0fa3 c8be c943 b73e
000003b0: 4c2d d9be 75e7 88be 7eea 173e 72e6 0ebe
000003c0: f87b 89be 5e6e 863d 77ed a7be 536f 293e
000003d0: e29d 45be 3fd7 573d 9540 abbe e005 ecbd
000003e0: dae0 e43d ded0 253e 14fc 933d 2483 dd3d
000003f0: 5b3e 80be 2cfd 20be 680e 873e b935 9fbe
0.046424665 0.13545924 0.1608607 -0.21848975 -0.1309591 -0.24331346 -0.2954342 -0.08926142
0.016570257 0.18723512 0.089678116 0.1705739 -0.16380334 0.09072747 0.24401236 0.16658641
-0.10360159 -0.42857692 -0.39580932 -0.025968539 0.12028763 -0.26925755 0.013951718 -0.37302423
0.20766945 0.11956183 0.0242526 0.12651311 -0.28219447 0.11462265 -0.16533704 -0.06521409
-0.39070952 0.13363053 0.073267266 -0.4750254 0.13553366 -0.19476849 -0.32515094 0.17520894
-0.13187116 -0.17231488 -0.22151206 0.15866266 -0.0021572404 -0.10140861 -0.47994098 -0.29800227
-0.20633933 -0.24617709 0.25669062 0.23199083 -0.19684398 0.19512403 -0.021063125 -0.27004477
0.15737383 0.2327526 0.26030326 0.18964492 -0.08716992 0.16512907 -0.2780133 -0.22963493
0.12317171 -0.24612081 0.6553208 -0.14779235 0.085483804 0.18634109 0.31902447 0.13131227
-0.045188483 -0.17517413 0.1911757 -0.22541034 0.12210664 -0.29597202 -0.3608395 -0.10026236
-0.2528153 0.12921177 -0.23715197 0.021743543 -0.17346732 -0.3714146 0.36725697 0.20831586
0.21344711 -0.14504379 0.10520683 0.07942031 -0.23657359 0.2687843 -0.054704286 0.101109624
0.03792247 0.27031425 0.122429416 0.11345019 0.11494636 0.11531483 0.12293717 -0.17598286
0.054204844 -0.34523407 0.34307507 -0.08264885 0.25744474 -0.17552489 0.09861022 0.13959873
-0.39313272 -0.23341483 0.17235398 0.010161425 -0.13358502 0.005035052 -0.07156854 -0.17886758
0.13242131 0.1413118 0.18262888 0.07584772 0.12753808 0.18034469 -0.3269729 -0.02350528
-0.09763428 -0.33879834 -0.34922954 0.14891423 -0.09156644 0.008578341 -0.3044246 -0.4482853
-0.06403867 -0.2865512 0.14617708 -0.19158715 0.016633285 0.18437208 0.15274067 -0.22606638
0.06352881 0.11151716 0.21199618 0.121686794 -0.10202421 -0.21614188 -0.1042545 -0.070251115
-0.0984686 0.42621827 -0.33297795 0.16873142 0.293133 -0.17049599 -0.078057736 -0.30855402
0.04458453 -0.29267225 -0.37794334 0.033609282 -0.27928793 -0.23021713 -0.32128128 -0.37821853
0.025558062 0.19933411 0.25295895 -0.3711345 -0.15675987 0.29718354 0.06955872 -0.2992879
0.1977048 -0.19946428 0.2084281 -0.24898976 0.06446496 0.17198366 0.03363751 -0.07854444
0.12394508 -0.22086729 0.07358646 0.11539818 -0.17759891 -0.34045437 -0.14350142 -0.20778039
0.020077543 -0.51437443 -0.06890436 -0.013965693 0.11290207 -0.20147362 0.25982898 -0.23130436
0.12639448 0.094700076 -0.13231274 -0.3051898 -0.3362028 -0.43041956 -0.061977796 0.20056924
0.04227219 -0.19220258 0.29129818 0.1381355 -0.3485514 -0.0215732 -0.18587166 -0.16039479
-0.4110879 -0.23246233 -0.26949775 -0.29751363 -0.3610537 -0.17188543 -0.25884333 -0.12989195
-0.05120429 -0.31564745 0.18719134 0.34034526 -0.4010654 0.121733844 -0.21746825 0.17172456
-0.23203808 0.16919321 -0.39186904 0.35793903 -0.4241737 -0.26739088 0.14835545 -0.13955095
-0.26852393 0.065640196 -0.3279836 0.16546373 -0.19298509 0.05269551 -0.3344771 -0.11524558
0.111756995 0.16192958 0.072258145 0.10816029 -0.25047573 -0.15721577 0.2637818 -0.31095675

output.bias f4 [2]
00000000: efaf 223c 3b05 a23c
0.009929641 0.019777885

bn1.weight f4 [24]
00000000: f701 273f 6e1a 0d3f 49d6 633e 1e49 ac3e
00000010: ccf9 ae3e 3b81 d93e db0f 613f b441 913e
00000020: 3fa7 713f cac9 143f 2653 173f 19ac 2e3f
00000030: 8619 323f 34d3 ea3e 8c88 4d3e 7f10 323f
00000040: a0de 253f b09b 363f 8ae7 213f 1141 3b3f
00000050: 8b96 b23e 3ddd 013f a566 113f 9a77 003f
0.65237373 0.55118454 0.22249712 0.33649534 0.34174955 0.42481408 0.8791482 0.2837044
0.9439582 0.58120406 0.5911125 0.6823135 0.69570196 0.4586426 0.2007162 0.6955642
0.64792824 0.7133131 0.63243926 0.7314616 0.3488048 0.5072821 0.5679725 0.501825

bn1.bias f4 [24]
00000000: f612 563d 6b96 87bd 048b 94bc 6bc5 23bd
00000010: ec90 633b 5f9c a83c f65f f4bc 2d8a 4cbd
00000020: fc24 0e3e cf74 a6bb da33 143d 0a23 a33b
00000030: c01b 413c e474 39ba ffef 9f3c 1da5 f5bb
00000040: bb5f 543d 1f8f c9bb f1d9 503d 1cae 1cbc
00000050: cee5 9bbd 3ede 15bd 0779 373d 4ec5 0ebb
0.052264176 -0.06620487 -0.018132694 -0.039983194 0.0034723831 0.020582376 -0.029830914 -0.049936462
0.13881296 -0.0050798426 0.036182262 0.004978542 0.011786401 -0.0007074608 0.019523619 -0.0074964897
0.05184911 -0.0061510946 0.050989095 -0.009562995 -0.07612191 -0.0365889 0.044793155 -0.0021785083

bn1.running_mean f4 [24]
00000000: cf23 9bc0 9c5e d4be 728c b940 9313 29bc
00000010: f0a8 ed3e 147c 7040 728c b940 9313 29bc
00000020: 1c4f 9fc0 5ccd debe c14b cb40 3390 103d
00000030: 7739 d43e 31bd 7040 c14b cb40 3390 103d
00000040: d972 a4c0 b34b ebbe ba53 cc40 15af 7ebc
00000050: 691b bc3e b4ed 6f40 ba53 cc40 15af 7ebc
-4.848121 -0.4147843 5.798394 -0.010319608 0.46417952 3.7575731 5.798394 -0.010319608
-4.978407 -0.43516052 6.3529973 0.03529377 0.41450092 3.7615473 6.3529973 0.03529377
-5.1390195 -0.4595619 6.3852205 -0.0155446725 0.36739662 3.7488832 6.3852205 -0.0155446725

bn1.running_var f4 [24]
00000000: d2ea 7b41 0f58 833f aa95 f943 e8bf 5f41
00000010: 2fbb 0042 34a4 5140 aa95 f943 e8bf 5f41
00000020: b7a9 7941 745b 843f c551 f943 a4de 6b41
00000030: 61fa 0842 29ba 5840 c551 f943 a4de 6b41
00000040: 417b 7441 7170 873f 1b9d 0044 8c03 7341
00000050: 1f7b 1242 91dc 6b40 1b9d 0044 8c03 7341
15.744829 1.0261248 499.16925 13.984352 32.182796 3.2756472 499.16925 13.984352
15.603934 1.0340409 498.63882 14.741856 34.24451 3.3863623 498.63882 14.741856
15.280091 1.0581189 514.4548 15.188366 36.620235 3.6853373 514.4548 15.188366
